ML Agents Test/Assets/Material/Better Models/RollerAgent-25856.onnx (onnx, 82366 bytes, 8 tensors)

network_body._body_endoder.seq_layers.0.weight f4 [128, 12]
000000 28 5b 52 3d a0 5e dd 3e 5d 0f 92 3e 56 d4 fd 3c
       0.051356465 0.43236256 0.28527346 0.030985039
000010 bf 15 3b 3e bc 43 a9 3d 2c 75 56 3e f6 dc f8 3c
       0.18270014 0.082648724 0.20943135 0.0303788
000020 a8 ee 2d bb 5d e0 94 3e f0 e6 27 3e 15 76 11 3e
       -0.0026539955 0.29077426 0.1639669 0.14205201
000030 59 ed 2e be b0 92 ac 3c d0 fe 01 3f 8a 7a 70 3d
       -0.17082728 0.02106604 0.5077944 0.058710612
000040 c3 d3 93 3e c0 f9 c0 3e 18 f2 8e 3e b2 0c 91 3e
       0.288725 0.37690544 0.27919078 0.28329998
000050 36 56 b3 3e 9c c6 12 3e ba 9d 0f be c3 e3 3d be
       0.3502671 0.14333576 -0.14025012 -0.18543915
000060 a5 21 3f bf 8a 16 98 3d 9a 03 54 be 03 e8 d5 be
       -0.7466071 0.07426174 -0.20704499 -0.41778573
000070 7f eb 86 3e 68 e5 09 bd 01 5d 7a be 61 f9 34 be
       0.26351544 -0.033666044 -0.2444954 -0.17673256
000080 e4 85 e5 3e 99 83 2f be a4 4f ec be 75 1e e9 be
       0.44828713 -0.17140044 -0.4615451 -0.4553105
000090 06 1a 51 3e 6e 91 88 be 46 3b 3c 3e b5 dd a7 bd
       0.20420083 -0.26673454 0.18381986 -0.08196584
0000a0 0e 88 0d 3f 71 2b 53 be 08 12 a9 be a7 a0 e3 bd
       0.5528573 -0.2062204 -0.3302157 -0.111146264
0000b0 63 7e 8b be 7d d9 93 3d d4 75 45 3d 4f b7 74 be
       -0.27244863 0.07219217 0.048208073 -0.23898052
0000c0 a3 32 f1 be 80 44 7e be d1 13 59 bc 76 d6 37 3d
       -0.47108945 -0.24830818 -0.0132493535 0.04488226
0000d0 c1 e6 b9 ba 35 84 7c be c5 9b 3b 3e 39 38 2d 3e
       -0.001418315 -0.24659808 0.1832114 0.16915978
0000e0 32 52 12 3f 91 04 4b be f2 c4 d0 3c 6a 60 b4 3d
       0.5715667 -0.1982596 0.025484536 0.08807452
0000f0 e0 63 18 be dd b0 0c 3f f3 6d 7f be a1 8e 3f 3e
       -0.1488185 0.5495737 -0.24944286 0.18706752
000100 68 8c a8 be cc ce bc 3e e3 58 47 3e 43 11 3d 3e
       -0.3291962 0.36876523 0.19467501 0.18463616
000110 5f 01 22 3d 04 5a 96 3e 28 2d 34 3e a8 1e 70 3d
       0.03955209 0.2936555 0.1759535 0.058622986
000120 6f 42 d4 3e 88 0b 8a be eb 2a 60 bd 91 03 3b 3e
       0.41456935 -0.26961923 -0.05472843 0.18263079
000130 f1 88 4d bc a2 b1 e3 3e c9 b8 af be d6 d9 76 3d
       -0.012544856 0.4447146 -0.34320667 0.06026634
000140 06 a6 ef bd d1 e1 e2 3d 95 fd 6f 3e f5 f4 03 bd
       -0.11701588 0.11078227 0.23436578 -0.03221603
000150 6a 4c d9 bd 82 31 13 3e 30 c2 4c 3e 29 04 9b bd
       -0.10610278 0.14374354 0.19995952 -0.07569153
000160 02 cd cb 3c 68 08 83 3e b8 06 15 be 1a ff fd be
       0.024878029 0.2559235 -0.14553344 -0.4960869
000170 cf e3 75 3e bf 8a 7c be ba 81 48 3d e2 1c 03 3d
       0.24012683 -0.24662302 0.048951842 0.032009967
000180 88 c1 99 bd b2 83 12 3e 1f ac 8f 3e e8 90 46 3d
       -0.07507616 0.1430805 0.28061005 0.048478037
000190 a9 fd a2 be d3 08 99 3d d0 b7 97 3d 2f c0 ab 3e
       -0.31834152 0.07472386 0.07408106 0.33545062
0001a0 f1 16 58 3e 6f ee 3f 3b bc 47 50 be a9 12 eb bd
       0.21102501 0.0029286405 -0.20339864 -0.114781685
0001b0 89 2e 3a 3f 68 db 6d 3d 51 25 14 3f de 67 e3 be
       0.72727257 0.05807057 0.5786944 -0.44415182
0001c0 76 b6 5d 3e 15 5c ac bd ff d6 70 3e 05 cc 4e bd
       0.21651635 -0.08416001 0.23519515 -0.050487537
0001d0 ae e8 37 bd 08 1f 08 bf fa ce 85 be 74 3e 02 be
       -0.044899635 -0.5317235 -0.26134473 -0.12719136
0001e0 63 c8 40 3e dd d4 cf bd 0d e0 c8 be 97 8b a4 3e
       0.18826441 -0.10148022 -0.39233437 0.3213775
0001f0 01 df 00 3f 6c d2 2b be d7 ac 8b 3e 7a 86 d5 be
       0.50340277 -0.16779488 0.27280304 -0.4170416
000200 cd 6c a9 be 62 3d 4e 3e f2 e3 56 be 72 05 d6 be
       -0.3309082 0.20140603 -0.20985392 -0.4180103
000210 8c ea e4 3e da 74 09 3c f1 54 b3 be de 40 80 be
       0.44710195 0.008389676 -0.35025743 -0.2504949
000220 a1 4b 77 be 00 1f 0c bd 41 70 5f be ef 34 c0 be
       -0.24149944 -0.03420925 -0.21820165 -0.37540385
000230 cf 2e e0 bd b2 75 de bd b6 d9 38 bd 96 eb bb bd
       -0.10946428 -0.10862292 -0.0451295 -0.09175794
000240 bc da e9 3e 17 19 b3 bd 97 d0 9d bd 26 34 95 3e
       0.45674694 -0.0874502 -0.07705801 0.2914135
000250 50 40 9c 3e df 00 a9 bc 90 d4 09 bb 2c cb 4f 3e
       0.30517817 -0.020630298 -0.0021031238 0.20292348
000260 49 73 d2 3e ee 8e ed 3d 74 85 48 3d 65 d2 1e 3e
       0.4110358 0.11599527 0.048955396 0.15509947
000270 43 02 3d 3e 7e 2e c4 3e 12 94 4a be f6 f4 a3 be
       0.18457894 0.3831672 -0.19783047 -0.32022828
000280 19 d2 00 be 5a a1 d5 be cd 5f 0d be eb 5b b2 3e
       -0.12580146 -0.41724664 -0.13806076 0.34835753
000290 3e c8 bd 3d 62 e2 10 bf d4 96 f2 bc bd 7e 99 3e
       0.09266709 -0.5659543 -0.029612936 0.29979506
0002a0 d0 38 33 3e 10 a6 be 3e ac 56 74 bd 7e 3b 9d bc
       0.17502141 0.3723607 -0.05965297 -0.019193407
0002b0 9b 0e 17 bf 1f 4d 75 3d 62 18 3f 3e 4c 69 04 3e
       -0.5900666 0.059888 0.18661645 0.12930793
0002c0 e9 0c 03 bf 72 ac 30 3d 8d 26 cf be 2d 23 1e be
       -0.51191574 0.043133207 -0.404591 -0.15443106
0002d0 7f 19 e6 3e 0d 5e f6 bd 64 57 28 3c ac 82 f7 3c
       0.44941327 -0.120296575 0.010274742 0.030213676
0002e0 98 e5 b3 3e 20 15 86 bc 37 e7 7c be 5f b7 83 3e
       0.35136104 -0.016367495 -0.24697576 0.2572584
0002f0 ed 8b 9d 3e 09 04 97 be 15 65 4b 3e a4 10 d5 be
       0.30770817 -0.29495266 0.19862778 -0.41614258
000300 47 50 a9 be 73 6a 9e bd 95 1f 01 3f a9 66 e8 3e
       -0.3306906 -0.07735147 0.50438815 0.45390823
000310 1a ae 7a be 48 27 2c 3e 6f 0a 9b 3e bf cf 82 3e
       -0.24480477 0.1681186 0.30281398 0.25549123
000320 34 5a 47 bf fe 98 37 3e d7 b7 4e be c5 df 1a bf
       -0.77872014 0.17929456 -0.20187317 -0.60497695
000330 4b 76 28 3e e0 f0 40 3d 71 26 29 3c d8 bc bf 3e
       0.16451375 0.047104716 0.010324107 0.37448764
000340 b1 c9 56 be 59 92 87 3e d6 95 b6 3e 43 7c 10 3d
       -0.20975377 0.26478842 0.3566119 0.035274755
000350 4d b6 87 3e 97 be 6c bd 6e 59 4e be 1f 09 d9 bc
       0.26506272 -0.05779895 -0.20151302 -0.026493607
000360 64 18 4f 3e 92 40 5f 3e 5b 17 01 3e f9 72 9c bc
       0.20224148 0.21801975 0.12606566 -0.019097792
000370 cd 23 b8 3d e1 e6 d3 be a6 e2 ca 3e 20 e4 97 3e
       0.089912035 -0.41387084 0.39626044 0.29666233
000380 f7 66 b4 3e 53 4e 51 bd b1 88 1d bf ac e4 bf be
       0.35234806 -0.051100086 -0.615367 -0.3747915
000390 a5 5c 1e 3c 8a b3 aa 3e 01 11 47 be e1 70 83 bf
       0.009665643 0.33340102 -0.1944008 -1.0268823
0003a0 7d 28 31 3e 4a c4 0e be 34 c9 f5 3e c6 d7 1f 3c
       0.17300601 -0.13942066 0.48005068 0.009756034
0003b0 7a a1 57 be 62 3d 23 be fe 29 6b bd ec 3d 55 3e
       -0.21057692 -0.15941384 -0.057413094 0.20824403
0003c0 d4 32 b3 3d 58 0c 51 be a0 d0 f3 bd 88 4e b8 be
       0.08749929 -0.20414865 -0.119050264 -0.35997415
0003d0 e2 26 10 3f 71 45 77 3d c8 ce 87 3e e4 3d 24 3f
       0.5630933 0.06036896 0.2652495 0.6415694
0003e0 25 6f 09 be 78 c2 c7 bd 95 57 5d 3e 0f 81 4b bd
       -0.13421305 -0.09753889 0.21615441 -0.049683627
0003f0 0c 60 a5 bc 9b 72 1c bd ce fa db 3d 1d e1 59 bb
       -0.0201874 -0.038195234 0.107411966 -0.003324575

network_body._body_endoder.seq_layers.0.bias f4 [128]
000000 5b 71 7d ba 43 48 7e b9 a5 8d 33 37 4e 45 c4 ba
       -0.00096680754 -0.00024250247 1.0702211e-05 -0.0014974268
000010 05 a1 80 39 ab 68 76 ba f5 b9 48 bb 4c 40 10 bb
       0.0002453403 -0.0009399752 -0.0030628417 -0.002201098
000020 4c cd 04 ba 06 f9 10 ba 7f 57 31 ba 9a c7 57 bb
       -0.0005065992 -0.00055302714 -0.0006765052 -0.0032925368
000030 e2 c9 5b ba 02 a1 0a 3b 74 b9 85 38 38 b8 d0 ba
       -0.000838427 0.0021153097 6.3764775e-05 -0.0015924042
000040 b7 29 25 3a 06 d7 2f ba cc d3 91 39 b0 7b 5c ba
       0.00063004665 -0.0006707761 0.00027814356 -0.0008410765
000050 39 af 60 b8 3e 95 e3 3a 20 78 f5 39 07 e5 93 bb
       -5.356895e-05 0.0017363203 0.00046819542 -0.004513386
000060 46 86 3b ba 01 22 28 3a ec ae 35 3a 8f 6e 54 ba
       -0.0007153492 0.00064137584 0.00069306674 -0.0008103633
000070 06 0e 9d ba b9 ee 0e b9 cf 1d 0b bb 6a bb 18 3a
       -0.0011982329 -0.00013631106 -0.0021227484 0.0005826267
000080 01 25 ad 39 07 8e b4 b8 4c dc 84 ba 4c 86 4f 38
       0.000330247 -8.6095235e-05 -0.0010136454 4.947772e-05
000090 7a 1b 19 ba 80 99 23 ba 34 77 22 b9 92 eb b9 ba
       -0.0005840581 -0.000624083 -0.0001549393 -0.0014184585
0000a0 df 11 da 39 0a 5b 93 ba 16 4b 4c ba f7 2f c2 37
       0.00041593515 -0.0011242342 -0.0007793171 2.3148938e-05
0000b0 73 44 95 3a 60 51 5e 39 00 04 4e b6 e7 94 7d 39
       0.0011388197 0.00021201884 -3.069872e-06 0.0002418343
0000c0 8a 1b 3e 39 7a 09 c3 b9 de 93 21 3b 3e a1 48 3a
       0.00018130071 -0.0003720036 0.0024654786 0.00076534215
0000d0 25 a1 da 3a d8 1d fc 38 fb 16 80 ba e2 2c 5a ba
       0.0016680105 0.00012021855 -0.0009772474 -0.0008322728
0000e0 6c 8e e8 ba 7c 3e a7 b9 c2 96 16 ba 62 f1 d7 39
       -0.001774264 -0.00031899277 -0.00057445106 0.0004118784
0000f0 f6 49 68 3b 49 59 48 bb c6 79 29 ba 14 aa 90 b9
       0.0035444475 -0.0030570796 -0.0006464984 -0.00027592538
000100 d2 ec 37 39 f7 fe 86 ba e2 23 3b 3b f4 25 60 39
       0.00017540462 -0.0010299374 0.0028555323 0.00021376443
000110 b7 76 25 b9 ed 17 9e 3a f8 b1 1a ba a8 f1 52 ba
       -0.00015779851 0.0012061574 -0.0005901153 -0.0008046874
000120 78 2e a8 b9 e4 ca 1c 38 9d 19 32 3a ac 5d c1 b9
       -0.0003207808 3.7382255e-05 0.0006793978 -0.0003688162
000130 16 88 93 ba 89 e5 ec 3a 2e d5 50 3b 96 f7 db b9
       -0.0011255767 0.0018073778 0.0031865346 -0.000419554
000140 8c ec 37 ba 6b 66 c4 3b 5c e9 86 bb 3c b4 ae ba
       -0.0007016144 0.0059936545 -0.004117174 -0.001332886
000150 c8 e9 33 ba 19 b6 b3 ba dc 6d 99 3b 68 c7 a4 38
       -0.0006863144 -0.0013710886 0.0046822857 7.857272e-05
000160 5e b8 4f ba 00 91 43 b7 f6 74 c3 b9 1e bf c7 ba
       -0.0007923896 -1.1656666e-05 -0.0003728044 -0.0015239452
000170 b4 a3 bc bb 2c 06 6d 39 8f 27 04 bb 79 b5 0b ba
       -0.0057568196 0.0002260438 -0.002016518 -0.0005329471
000180 62 89 a0 3a be d0 8d b9 cd cb e8 3a 13 fb 94 ba
       0.0012247975 -0.0002704914 0.0017760933 -0.001136633
000190 79 54 84 bb 06 8c 90 bb 78 b4 dd b8 87 50 5e b9
       -0.0040383902 -0.0044112233 -0.00010571716 -0.00021201569
0001a0 c8 15 11 bb 39 91 db 39 53 58 8d b9 e7 d2 3a ba
       -0.0022138227 0.00041879134 -0.00026959422 -0.0007126764
0001b0 54 b6 9d b9 27 26 da 3a d0 cd 46 b9 04 87 6c bb
       -0.0003008122 0.001664345 -0.00018959423 -0.0036091218
0001c0 52 ce 61 b9 93 be b1 39 48 74 a1 b9 0f 1d 00 bb
       -0.00021534532 0.0003390206 -0.0003079495 -0.001954857
0001d0 bb b8 1f b8 e0 09 02 b9 a8 8a 22 3a 09 16 cd ba
       -3.8080598e-05 -0.00012401445 0.0006200471 -0.0015646826
0001e0 fa 04 76 3b c4 c0 16 b9 81 f8 d4 b9 b5 a9 c3 b9
       0.0037539587 -0.00014376926 -0.0004062094 -0.0003731974
0001f0 41 f9 9a b9 22 55 99 b9 ff 8b e3 37 3f 2e 9d 3a
       -0.00029558878 -0.00029245863 2.71257e-05 0.0011991932

network_body._body_endoder.seq_layers.2.weight f4 [128, 128]
000000 97 24 c2 3c 6a 13 b5 bc 46 5a 33 3b 0e f7 a1 bd
       0.023699088 -0.022103984 0.002736704 -0.0790845
000010 80 97 26 bd bb f1 f6 bc c2 3b f6 3b 43 f3 5a bd
       -0.040671825 -0.030144563 0.007514448 -0.05345465
000020 19 2c cc bc 9b 2f 48 bd da ee 8a bd 96 9a 7d 3d
       -0.024923371 -0.048873525 -0.067838386 0.061915003
000030 69 52 64 bd ee 7e 0b 3d bb 7e 32 3e c8 47 ec bc
       -0.055742655 0.034056596 0.17431156 -0.028842822
000040 e8 48 cc 3d d2 44 27 bd 81 3f 4b be dc d3 bc 3b
       0.09974843 -0.040837117 -0.19848444 0.0057625603
000050 cf 75 69 3c 15 c8 87 bd e0 78 e1 bd d9 1d 79 3d
       0.014249279 -0.066299595 -0.11009383 0.06081948
000060 f3 fa cd bd 5d 0b 25 bd aa ad 98 3d 2c 92 b7 bd
       -0.100576304 -0.04029404 0.07454999 -0.08963427
000070 69 a7 02 bd 0e 51 11 be 6f 58 13 3b d8 5d fa 3d
       -0.031897936 -0.14191076 0.002248313 0.122249305
000080 f7 ae d4 3d c3 2e 55 bd ac 74 b8 bc 7a 4c 23 bb
       0.103849344 -0.05204655 -0.022516571 -0.002491741
000090 da 4d 3e 3d f2 27 f2 bd 45 af ec bd 5c 40 02 3e
       0.046460964 -0.11824025 -0.115568675 0.12719864
0000a0 d1 f7 4f 3d 95 e6 3a be 52 bb fc 3d 82 6a 09 bc
       0.050773446 -0.18252023 0.12340416 -0.00838721
0000b0 52 80 5f be 62 4f 1b 3e a4 ea c4 3d dc 03 45 bd
       -0.21826294 0.15167001 0.09615067 -0.048099384
0000c0 6d 7b 58 be 31 98 f5 3d 63 c7 c5 bd f6 b5 cf bd
       -0.21140833 0.11991919 -0.096571706 -0.10142128
0000d0 e2 81 e8 bd 0a 70 57 be 3b 25 22 bd 77 d3 06 bd
       -0.11352898 -0.21038833 -0.039586287 -0.032916512
0000e0 bd b2 41 be c6 3e 86 3c ec a4 1b 3d 3d ae 95 3d
       -0.1891584 0.016387355 0.03799908 0.07308624
0000f0 fa 8a ff 3c b5 8d 23 bd 51 f1 d2 bd c1 6c 2b 3e
       0.031194199 -0.039930064 -0.10299934 0.16740705
000100 77 e2 a3 3d 5e 17 c1 bc 59 4c 86 3c b3 a7 10 be
       0.08002179 -0.023570713 0.016393827 -0.14126472
000110 b5 3f 0b be 23 ab 25 3e 7b 6c be bc b9 0a c9 3c
       -0.13598521 0.16178565 -0.023245087 0.024541246
000120 b3 bd 27 3d 84 18 65 3d 93 92 92 bd bd c0 cd bd
       0.040952396 0.055931583 -0.07156863 -0.100465275
000130 fe ed 82 ba c5 05 48 bd 6a d2 db 3d dc d3 81 3d
       -0.000998914 -0.048833627 0.10733493 0.06339237
000140 d9 5f 8b bd 8f 5d ea 3b ab 23 86 bd c7 d0 20 3b
       -0.06805391 0.0071522663 -0.06549772 0.0024538503
000150 fe e3 56 3c 6e 58 50 3d 0d 52 f5 bc 40 58 09 3e
       0.013115881 0.050865583 -0.029946351 0.13412571
000160 2c 11 b7 bd 05 f1 d8 bd d7 93 46 3b f1 be c0 3c
       -0.08938822 -0.10592846 0.0030300522 0.023528548
000170 4d b0 cc 3d 7b 6d 3e bd 65 02 4b 3e b1 fe 8f 3d
       0.09994564 -0.046491127 0.19825132 0.070310004
000180 09 b3 b1 3c 55 07 1e 3d 3e 6c 7b bc 70 4c 19 bd
       0.021691816 0.03858121 -0.015345631 -0.037426412
000190 43 ea bb bc cb c8 84 bc 37 eb 2c be 25 33 f3 bd
       -0.022938853 -0.016209027 -0.16886602 -0.118749894
0001a0 71 36 9d bc f8 4c c5 3c 4d 2f a6 bd 26 0f 48 bd
       -0.019190999 0.024084553 -0.08114491 -0.04884257
0001b0 93 0b 30 bd 4d 82 c3 bc c0 f0 f1 bc 2b be ba 3d
       -0.042979788 -0.023865843 -0.029533744 0.09118303
0001c0 4d 11 17 3e 85 13 c2 3d 16 1b 8c 3d 40 20 96 3d
       0.14752693 0.09476379 0.06841104 0.0733037
0001d0 6b 32 b6 3c d8 7b 2a 3e d7 77 d8 3c c5 69 5a 3c
       0.022240838 0.16648805 0.026424332 0.0133308815
0001e0 63 7b a3 bc f1 9f 96 bc f0 68 a5 3d a8 13 94 3d
       -0.019956296 -0.018386813 0.08076656 0.07230312
0001f0 97 db f9 bc 97 f8 49 bd 8e 21 8a bd 6f ef 14 bb
       -0.030500216 -0.04930934 -0.06744681 -0.0022725721
000200 a2 1c 23 3c fe f6 f6 bd d4 bb b7 bc 0a c4 0b 3e
       0.009955557 -0.12058829 -0.02242843 0.13649002
000210 e7 e8 59 3d a9 27 f8 3d 84 91 19 bc d8 d6 bf 3c
       0.05320063 0.121169396 -0.009373073 0.023417875
000220 ce b8 01 be ea dc 2b bd 61 f0 b9 3d b9 34 b2 bd
       -0.12668154 -0.041958727 0.09079052 -0.08701462
000230 50 de 7c bc 27 b9 98 bc bf 47 d7 3d 0e 04 07 be
       -0.015433863 -0.018642975 0.10511731 -0.1318514
000240 f4 24 2a be df 49 84 bd a4 3b dc 3d 1c ea 3c be
       -0.16615659 -0.06459402 0.10753563 -0.1844868
000250 29 6d d7 3d f9 f4 41 3e 79 56 a3 3c 56 82 08 3c
       0.105188675 0.18941106 0.019938694 0.008331856
000260 f0 e9 4e bd c1 c8 c3 3d 34 5e ae 3d 0b 09 5f 3d
       -0.05051607 0.09559775 0.085140616 0.054451983
000270 7c e9 6c 3d 2d 5c d2 3d 3d 9d 2f 3d 07 a0 5e 3d
       0.057839856 0.102714874 0.042874563 0.054351833
000280 b1 78 69 bd 4f ef 67 3d f3 76 29 3d 04 da 16 bd
       -0.056999866 0.056624707 0.041373204 -0.03682901
000290 a5 80 3c bc 0c 59 27 be 99 37 c1 bd 91 8d 01 bc
       -0.011505281 -0.16342562 -0.094344325 -0.007907287
0002a0 21 10 2c bc 0f 2e c1 bd 6a 2a 9f bc 54 1c 10 3d
       -0.010501892 -0.09432613 -0.019429404 0.035183266
0002b0 70 ce 82 3d a7 8c 46 bd 79 da 29 3d be 7d 2f be
       0.06387031 -0.04847398 0.041468117 -0.1713781
0002c0 e0 17 ab bd 46 d0 dc 3d 50 05 3e 3b 9a d4 a6 3d
       -0.08354163 0.107819125 0.0028994866 0.08146019
0002d0 7f 48 36 3d 23 ae 80 bd 44 33 d4 bd 9f 9a 09 bc
       0.04450273 -0.06283214 -0.10361341 -0.008398681
0002e0 fc 04 f7 bd 52 bd 8f bd 87 96 12 3e 2c 7b 84 3e
       -0.120614976 -0.07018532 0.14315234 0.25875223
0002f0 31 f5 f9 bb df 48 40 3d d4 4f f7 3d 8a 18 97 3d
       -0.007628106 0.046944495 0.12075773 0.07377727
000300 16 ee e6 bd 68 a5 ea 3d 2f 31 22 3e 0a 1b f4 bc
       -0.1127588 0.1145733 0.15839075 -0.02979805
000310 ba 23 b9 3d 00 81 53 bc 51 94 e0 bd 3c 9d bf 3b
       0.090400174 -0.012909174 -0.10965789 0.005847601
000320 9d 7c bd bc 11 49 9e 3d f9 b7 03 3e ed f5 19 3e
       -0.02313071 0.0772878 0.12863149 0.1503522
000330 db 2a 1d be f4 a3 51 bc e9 9d f9 3d 8d fe c1 3d
       -0.1534838 -0.012795437 0.12188322 0.0947238
000340 8b de 6e 3d ba 09 1d 3d ed 5e 01 be c8 8f f1 3c
       0.058317702 0.038339354 -0.12633868 0.029487506
000350 ea d7 e7 bd 74 a3 44 be a6 a4 02 bd 98 14 2c bd
       -0.11320479 -0.19202977 -0.031895302 -0.042011827
000360 8f c4 72 bc 97 62 a7 3d 01 13 9c 3d a6 3e ba bd
       -0.014817371 0.081731014 0.07620812 -0.090939805
000370 1d 50 8c bd a2 5d 95 3d 4e c9 04 3d 70 9e 50 3d
       -0.06851218 0.0729325 0.03241854 0.050932348
000380 74 54 15 be ed 10 ad bc e5 44 24 3e 35 3f 88 3d
       -0.14582998 -0.021126235 0.16041906 0.06652681
000390 c0 9f a7 bb 85 fd e7 3c 18 89 ab bd 03 9e 80 3d
       -0.005115479 0.02831913 -0.08375758 0.06280138
0003a0 72 9d 0e bd 3f 6a be bd c7 ff 72 3c a5 42 3c 3a
       -0.03481812 -0.092976086 0.01483149 0.00071815617
0003b0 90 f6 2b 3d b6 2f c3 3d 4d 93 31 bd 38 69 db 3c
       0.041983187 0.095305845 -0.043353368 0.02678357
0003c0 5c 69 53 3d 4a 6c 8e bd 50 3b a0 bc 35 55 43 3d
       0.05161415 -0.06954248 -0.019559532 0.04768868
0003d0 b1 2b fa bc 9c 08 38 bd b4 74 be bd f9 2b 5d bc
       -0.030538412 -0.044930086 -0.09299603 -0.013499253
0003e0 2f fe 26 bd 0e ed d4 3d 60 fc 11 bd 81 0b 59 3c
       -0.040769752 0.10396777 -0.035641074 0.013247372
0003f0 b4 92 05 be e2 ec d0 3d 0b b2 8a 3d a4 eb 9f bc
       -0.13044244 0.10201432 0.0677224 -0.019521542

network_body._body_endoder.seq_layers.2.bias f4 [128]
000000 f3 75 b0 b9 4e c8 ed b9 f2 8a ef ba 90 b2 15 b6
       -0.00033657215 -0.000453534 -0.0018275662 -2.2306667e-06
000010 a5 c7 15 ba cc 7b d0 b9 06 16 c3 ba 4e ae c3 b8
       -0.0005713648 -0.00039765087 -0.0014883883 -9.330791e-05
000020 d5 34 58 ba c6 ab 74 ba ba 01 8d 39 93 e2 83 ba
       -0.00082476187 -0.00093334576 0.00026894902 -0.0010062031
000030 10 6a 32 ba b9 fa 2b ba 44 34 08 39 cb 44 37 ba
       -0.00068059657 -0.0006560493 0.00012989441 -0.0006991147
000040 4f 01 00 ba fc da 12 ba 1a d3 bd 3a 0a 16 1c 3a
       -0.00048830075 -0.0005602089 0.0014482469 0.0005954212
000050 06 4f a7 b8 a0 22 07 bb ef 17 22 bb 5c d8 78 b9
       -7.9779e-05 -0.0020620003 -0.0024733504 -0.00023731723
000060 2c 9a e3 ba 6a e0 e9 ba 1a fc 7c ba 14 b7 05 ba
       -0.0017364672 -0.001784337 -0.0009650603 -0.0005100828
000070 bc ba 30 39 58 1d be b8 43 7a 1b ba 27 94 e4 ba
       0.00016854232 -9.065372e-05 -0.0005930999 -0.0017439172
000080 45 61 75 ba 6e 29 98 b9 74 ce f3 3a d3 97 e6 ba
       -0.00093605026 -0.00029022567 0.0018600957 -0.0017592855
000090 9d ac 26 ba 16 ae 25 ba fd 5f 25 ba 8e 8e d3 39
       -0.0006358119 -0.00063201913 -0.0006308554 0.00040351268
0000a0 9d 70 90 ba f1 3a 13 3a 60 ab 3b 39 0a 88 2b ba
       -0.001101989 0.0005616388 0.00017897552 -0.0006543404
0000b0 f9 69 8b b9 be 41 1c ba 12 db 88 b9 f9 71 9c b9
       -0.00026591102 -0.0005960724 -0.00026103162 -0.00029839555
0000c0 86 cf b5 b9 2c a5 0d b9 d4 6e ee ba 90 81 ef b9
       -0.00034677627 -0.00013508339 -0.0018190988 -0.00045682164
0000d0 de 46 3a ba 42 d4 b5 ba d7 c1 88 bb 68 1f 8e ba
       -0.0007105897 -0.0013872462 -0.004173498 -0.00108431
0000e0 61 88 4e ba b6 5e 2e ba 1b 76 28 bb 77 8e 30 bb
       -0.00078785984 -0.0006651686 -0.0025705162 -0.0026940384
0000f0 e6 12 61 39 0b 57 7d b9 ad cd c6 38 26 70 be ba
       0.00021464712 -0.00024160386 9.479686e-05 -0.0014529272
000100 1c 75 fe b9 0a 22 94 ba 70 e4 6f 39 a4 a5 25 bb
       -0.0004853391 -0.0011301648 0.00022877916 -0.0025275731
000110 c2 93 76 3a d6 be d5 b9 b1 27 e4 3a aa ce 3c ba
       0.0009406173 -0.0004076871 0.0017406848 -0.0007202426
000120 9c 20 89 ba 0d 06 9e b8 f8 b2 1c bb f7 e8 da ba
       -0.0010461989 -7.535154e-05 -0.0023910385 -0.0016701509
000130 2b d0 00 bb 80 f3 2c b7 bd fc 8d b9 ea 9f 93 b9
       -0.0019655328 -1.0308693e-05 -0.0002708192 -0.0002815717
000140 8a 2e 56 ba 04 97 89 3b 98 ea 6c 39 96 5b 56 b9
       -0.0008170387 0.0041989107 0.00022594107 -0.00020442749
000150 99 25 c2 3a 2d c6 96 ba ba 7a 44 39 82 d1 0c 3a
       0.001481223 -0.0011503153 0.00018737736 0.0005371795
000160 38 42 1d bb a2 b2 27 ba 6d 33 80 ba 36 8c ff b9
       -0.0023995768 -0.0006397163 -0.0009780951 -0.00048741855
000170 20 43 6d ba c7 11 82 ba de eb 01 ba 90 87 7d ba
       -0.0009050835 -0.0009923511 -0.00049561064 -0.00096713845
000180 97 d2 90 3a 22 99 9d 39 97 1f 8b b9 6d 5a 68 ba
       0.0011049089 0.00030059466 -0.00026535682 -0.0008863572
000190 6c 8b 4c ba 5d ac 93 b9 10 b1 ed 39 5a 88 48 ba
       -0.0007802758 -0.00028166446 0.00045336084 -0.00076497125
0001a0 c6 fa c5 b9 90 73 85 ba 42 d1 e9 b9 ca 4c 09 ba
       -0.0003776161 -0.0010181535 -0.00044597132 -0.0005237578
0001b0 8b 28 2e ba 8a eb 09 ba 2b 50 35 ba c0 71 89 3a
       -0.00066436146 -0.00052612333 -0.0006916548 0.0010486171
0001c0 fa e5 2a ba 92 6e 99 ba ce a9 94 39 b4 e5 d2 39
       -0.00065192545 -0.0011705926 0.00028355274 0.00040225463
0001d0 a1 7e 1c ba 09 66 8a ba 67 91 9a 3a 36 1d 3f b9
       -0.0005969797 -0.0010558973 0.0011792601 -0.00018226061
0001e0 73 fc 28 ba dc 55 89 b8 c0 c8 83 b5 a0 ad 7a ba
       -0.0006446309 -6.5486616e-05 -9.818687e-07 -0.00095626153
0001f0 51 58 ad b9 73 04 bd ba 36 e3 99 ba bc ac 38 ba
       -0.00033062932 -0.0014420882 -0.0011740688 -0.00070447824

action_model._continuous_distribution.log_sigma f4 [1, 4]
000000 11 2d bf bb 1e 29 66 bb 50 33 62 38 bc 92 54 bc
       -0.0058342298 -0.0035119723 5.3930387e-05 -0.012974437

action_model._continuous_distribution.mu.weight f4 [4, 128]
000000 0e 62 80 3b 14 27 45 3c 45 9d 8a bc e8 e3 a1 bb
       0.003917939 0.012033243 -0.016920695 -0.0049404986
000010 45 e1 79 3b ca ae aa 3c 90 be 91 bc fa 3c cd 3c
       0.0038128656 0.020835299 -0.017791063 0.02505349
000020 33 ec 6d 3b f4 0c f7 3b 9e 1d a3 3b b8 77 a3 bc
       0.0036304116 0.007539386 0.004977896 -0.019954547
000030 6f 76 4c 3c 85 13 1a 3c 23 ea 4f bb f2 3d ee bb
       0.012479409 0.009404068 -0.003172525 -0.007270568
000040 22 6a 3e bc dd 2a 6e 3c 42 14 21 3d f1 ba 3c bb
       -0.011621984 0.014536587 0.03932596 -0.002879795
000050 90 9e c8 bc 67 91 03 3c 38 bc 3b bc b9 00 c0 ba
       -0.024489671 0.008030272 -0.011458449 -0.0014648653
000060 ef 4d 1f 3d a4 d0 40 bc 9d 4a 21 3c 99 2c e1 3b
       0.038892683 -0.011768494 0.009844449 0.0068717715
000070 49 e6 99 bc 69 9f 6c bb 54 9b 5f bc a0 f2 d4 3c
       -0.018786566 -0.0036105758 -0.013647873 0.025994599
000080 1c bf 30 3d 10 63 f1 bc d3 52 91 bc 42 db 87 3b
       0.043151006 -0.029466182 -0.017739689 0.0041460106
000090 87 48 af b9 ae 2f 86 3b e4 64 15 bc ed d4 c3 bc
       -0.00033432638 0.0040950393 -0.0091182925 -0.023905242
0000a0 fc 1c 58 39 9c 19 0b bc 5d 3b 90 bc c6 25 de 3b
       0.00020610163 -0.0084899925 -0.017606432 0.0067794053
0000b0 08 32 b3 3c 4a 6d 9a 3c 60 4f 6e bc 59 56 c5 3c
       0.021874443 0.018850941 -0.014545292 0.024089025
0000c0 f4 5e 80 3c 22 7d 0a 3d c0 34 a8 3b b1 b6 69 3c
       0.015670277 0.033810742 0.0051332414 0.014264748
0000d0 ed d6 0f 3b da 44 0b 3b a4 e7 8c bc a8 ef 5a bc
       0.0021948174 0.0021250756 -0.017200299 -0.013362803
0000e0 9d 24 07 bb 3c c0 db bc 5d d2 7a 3a ad ec be bc
       -0.0020621188 -0.026825063 0.000956809 -0.023306215
0000f0 44 dc f5 3b e3 ed 92 bc 9d a9 0b bb 39 b9 c4 3c
       0.0075030643 -0.017935699 -0.0021310814 0.024014102
000100 41 f8 ee bc 43 b9 e7 bb e9 9c 66 bb 2c aa 77 bb
       -0.029171111 -0.0070716455 -0.003518874 -0.003779064
000110 90 30 12 3c 48 e5 71 bc 54 83 b0 3c c5 e8 a2 bc
       0.008922711 -0.014764138 0.021546997 -0.019886384
000120 70 86 b3 bb d4 6f ca 3c f2 a8 a4 bc 6d 47 9d bb
       -0.0054786727 0.024711527 -0.02010009 -0.0047997744
000130 85 ec 0e bc f9 b8 1b bc b8 8c fe bc b1 7f f2 3b
       -0.008723383 -0.00950455 -0.03107296 0.007400476
000140 38 fc 00 3b d0 1a f3 bb b8 35 d1 bc c1 19 8f 3c
       0.0019681584 -0.007418968 -0.02553831 0.017468335
000150 67 02 01 3b 79 2b 9e bb d0 27 cc bb 90 95 48 bc
       0.001968527 -0.0048269597 -0.006230332 -0.01224269
000160 b3 95 bb 3c 86 93 5d bb 90 d6 23 bc 42 9b 67 bc
       0.02289853 -0.0033809855 -0.009999886 -0.014136137
000170 46 9e 02 bc ef 34 7e bb 3c 6a 55 bc a8 28 34 3c
       -0.007972306 -0.0038788875 -0.0130258165 0.010996021
000180 fd 06 ac bc f0 81 d5 3c 90 c0 03 bc e1 a7 c8 bc
       -0.020999426 0.026062936 -0.008041516 -0.024494113
000190 be ae f7 3b 8a de f7 bc e3 bf 1d 3c bd 4e dd bc
       0.0075586727 -0.030257482 0.009628269 -0.027015084
0001a0 f8 17 03 3d a8 68 e1 3c 7d ed ab bc a9 b5 b5 bc
       0.03200528 0.027515724 -0.020987267 -0.022181349
0001b0 d0 60 1a 3c 37 f4 2a 3c f3 7e 35 3b 6b 9a ad bc
       0.009422496 0.010434202 0.0027694076 -0.021191796
0001c0 51 f5 b0 ba a1 19 fc bb 1b 21 e4 3c 09 1e 57 bc
       -0.0013500844 -0.007693485 0.027847817 -0.0131297195
0001d0 22 8d 19 bc fe eb c2 3c 3e b4 03 3d f0 5e 88 3b
       -0.009372028 0.02379417 0.032154314 0.004161708
0001e0 b9 97 62 3b ed c7 20 3d 7f b7 da bc b8 f0 2e 3c
       0.0034575297 0.039253164 -0.026698826 0.010677509
0001f0 dd bc 94 3a 66 cd bf bb 41 3e 44 3d f7 fe 12 3a
       0.001134779 -0.005853343 0.047910932 0.0005607451
000200 7e 0d ac 3a 17 4f 46 3c a8 1d 36 bc 74 0d ed 3c
       0.001312658 0.012103817 -0.011115469 0.028937079
000210 5d e2 de bc 03 d1 ab bc bf 25 8c 3c e9 6c 30 3c
       -0.027207548 -0.020973688 0.017107842 0.010768154
000220 f3 e9 20 bd d9 96 d0 bc 41 6c 00 3d 99 f1 b6 bc
       -0.03928561 -0.025462555 0.03135324 -0.022332
000230 fb 95 23 bc 91 43 f4 bc 9e 54 a9 3a a6 79 a7 3a
       -0.009984489 -0.029817374 0.0012918895 0.0012777343
000240 d2 8f 43 bc 57 27 85 bc 52 6f c5 3c 92 19 b1 3c
       -0.011936145 -0.01625411 0.024100933 0.021618638
000250 e6 c7 9c 3c d5 c8 0d 3c 50 25 3d 3a 3f 04 90 3b
       0.019138288 0.008653839 0.0007215338 0.0043950374
000260 fa 1c c3 3c b8 08 0c 3c 22 a9 34 3c cd d1 ca bc
       0.023817528 0.008547001 0.0110266525 -0.024758244
000270 2b 8a ec bc 0d da 98 3c 84 f9 83 3a f5 ba ed 3a
       -0.028874477 0.018658662 0.0010068868 0.0018137383
000280 f4 94 bb 3c 88 d1 4b bc e2 76 01 bc 9a 1a 2e bb
       0.022898175 -0.012440093 -0.007901879 -0.0026566149
000290 d2 f6 7e ba 4b e5 0d 3b c1 95 5d bc 78 3a 29 bc
       -0.000972611 0.0021651562 -0.013524474 -0.010328881
0002a0 2b f8 0a 3b 45 94 18 3c fe 65 98 ba d6 1e f9 bc
       0.0021205049 0.009312694 -0.0011627076 -0.030410212
0002b0 3c b5 06 bd a5 ef e5 bb 7e df 02 bc cf 24 fe 3b
       -0.032887682 -0.0070170932 -0.007987855 0.007755853
0002c0 d2 d8 88 3c 85 cd d9 3c 30 8d 17 3c d2 fd e2 bc
       0.01670495 0.026587257 0.00924997 -0.027708922
0002d0 3e 43 dd bc 11 0f fa 3c db 6f 80 3b fe 5a 2f bc
       -0.027009603 0.030524762 0.003919584 -0.010702847
0002e0 0a 5a e1 3c 0e c9 3e 3c 4c fe ae bc cb 3c 4d 3c
       0.027508754 0.011644615 -0.021361493 0.012526701
0002f0 99 f5 42 3c 98 39 f1 3b 46 ba a9 3b b0 ae 8d ba
       0.011899375 0.007361602 0.005179676 -0.0010809507
000300 60 2c d2 3a e2 9d 5d bc 3a 25 a2 3b 96 c0 01 bd
       0.0016034953 -0.013526412 0.0049482854 -0.031677805
000310 de 4f 1c bb 59 a3 98 3b 92 f5 04 3c 9c 99 ea bc
       -0.0023851315 0.0046581444 0.008115189 -0.0286377
000320 a9 ba ec 3b ce b2 f9 3a 0b 81 00 3d cb 16 6e bb
       0.0072244 0.001905048 0.031373065 -0.0036329504
000330 f3 62 f4 3c 55 ad 03 3d de ce 84 3c e8 33 93 3b
       0.029832339 0.032147724 0.016211923 0.0044922717
000340 d4 63 ae 3c 3a 5b f8 bc bf 88 51 3c f4 6d e1 ba
       0.021287836 -0.030316938 0.01278895 -0.0017198906
000350 99 d6 80 3c a5 3b e7 3c 19 77 3f 3b d7 f6 9c 3c
       0.015727328 0.028226683 0.0029215275 0.019160671
000360 4a cf a9 bc 8f a2 10 bc be 10 11 ba c3 e8 51 3c
       -0.020728726 -0.0088278195 -0.0005533806 0.012811842
000370 2e 4f 0f bc 02 a6 a5 bc 93 04 8c 3b 1b 00 9f 3c
       -0.008746905 -0.02022076 0.004273006 0.01940923
000380 80 e3 90 3c d8 b5 3d 3c 22 01 08 bb 90 05 5a b6
       0.017686605 0.011578999 -0.0020752628 -3.248777e-06
000390 32 7b cf bc 03 a8 cb ba 05 b6 3a 3d 23 6d e2 bb
       -0.025327299 -0.0015537742 0.045583744 -0.0069099828
0003a0 c8 45 1e bc 14 97 c2 bc 43 fa 43 bc 45 76 84 3c
       -0.009660192 -0.02375368 -0.0119615225 0.016169677
0003b0 33 dc 87 3c 22 0b 65 bc 77 11 84 3c 1a aa 83 bc
       0.016584491 -0.013979705 0.01612161 -0.016072322
0003c0 1f 25 16 3b f7 34 db 3c ce b3 cc bc e3 f9 c9 3c
       0.002291031 0.026758654 -0.024988081 0.024655288
0003d0 5b 2c b2 bc 85 6f c8 bc 8c 39 a6 3b 23 67 61 3c
       -0.021749666 -0.02446724 0.005072778 0.0137575
0003e0 40 bf 9f 3c 43 c5 93 bb 2a 94 bb bc df 09 b6 bc
       0.019500375 -0.0045095994 -0.022897799 -0.022221504
0003f0 40 62 c0 3a 53 54 7e 3b 54 ea 25 bc 87 34 c1 bc
       0.0014677718 0.0038807585 -0.010126669 -0.023584617

action_model._continuous_distribution.mu.bias f4 [4]
000000 84 e5 ac 38 50 b8 ef 39 25 30 fd 38 06 d0 4e 3a
       8.24435e-05 0.00045722956 0.00012072948 0.0007889274

action_model._discrete_distribution.branches.0.weight f4 [1, 128]
000000 fa 02 84 b9 22 ae ac bb bf bf 20 bc af 4a d0 ba
       -0.0002517922 -0.0052697817 -0.009811341 -0.0015891398
000010 f0 12 ab 3b 7b 88 20 bb bf 66 b4 3a eb 04 7d bc
       0.0052207634 -0.0024495411 0.0013763531 -0.015443067
000020 c2 51 54 39 2c 2f 2b 3c 7e dd 41 bc 62 88 b0 bc
       0.00020248353 0.010448258 -0.011832593 -0.021549407
000030 7f de a0 bc 2b 33 06 3c 04 c5 88 bb cd 50 6f bc
       -0.019637344 0.00819091 -0.0041738767 -0.014606667
000040 06 c4 15 3c c3 03 c0 3a 5b e0 86 bb 5a e8 01 ba
       0.009140974 0.0014649559 -0.0041161007 -0.00049555826
000050 8f 5e 79 3b d8 4d fb 3b 24 cb 93 bb 33 12 2e 3c
       0.0038050746 0.007669192 -0.0045103002 0.010624456
000060 03 41 db ba 87 ac 43 3b bb 88 30 bb 82 40 ad bb
       -0.0016727749 0.0029857473 -0.0026936966 -0.005287231
000070 78 a9 a8 3c 71 e3 1b 3c d0 cd 6b 3b 07 2a b0 3b
       0.020588621 0.0095146755 0.0035980828 0.005376104
000080 05 f1 92 39 70 3f ef ba 2f 14 e7 3b 23 93 69 ba
       0.00028026864 -0.0018253159 0.0070519666 -0.00089101697
000090 20 99 50 bc ff 3a 84 3c 60 83 aa 39 d6 81 a5 3c
       -0.01273182 0.016141413 0.0003252281 0.020203512
0000a0 97 2e ad 3b 06 ae a2 3a 2b 37 ad 3b 9b f7 ea 3b
       0.005285095 0.0012411482 0.0052861175 0.00717063
0000b0 2f 3f 1c 3b e3 13 9b bb 68 cd e6 b9 8b c3 24 ba
       0.0023841371 -0.0047325953 -0.00044022058 -0.00062852417
0000c0 d3 74 06 3c 4f 10 58 3c b8 da f1 bb 9f ef 05 3b
       0.008206564 0.013187482 -0.0073808096 0.0020437015
0000d0 a7 91 0b bb bc 1a c7 3c aa f1 ab 3c aa 8b da 3a
       -0.0021296532 0.02430474 0.020989258 0.0016673703
0000e0 8b b6 3a bc e2 a5 6a bc ac 2a 38 3c 1f d1 ed 3a
       -0.011396061 -0.014321776 0.0112406425 0.0018143988
0000f0 95 26 4a bb 2b 90 2a bb bd 5b 49 bc 23 ea cb 3b
       -0.003084575 -0.0026025872 -0.0122899385 0.0062229796
000100 1b 52 1d 3b 01 a6 15 3c e7 5b 78 bc 42 d2 43 3b
       0.0024005238 0.009133817 -0.01515863 0.0029879962
000110 18 cd 74 3b 15 2f 5f 3b c0 b4 5d 3c 30 d8 9c 3b
       0.003735369 0.0034055163 0.013531864 0.0047865137
000120 06 2f 3c 3c e2 0c d3 ba ef 3b 66 bc 60 35 41 3c
       0.011485821 -0.0016101862 -0.014052375 0.011792511
000130 f3 a3 a5 3b 45 c7 89 bb ba 96 8e bb 6f 7f 67 bc
       0.0050549447 -0.004204663 -0.004351464 -0.014129504
000140 58 ab df bb 6f 6f 2e 3c 48 4e 81 3c 0b c4 6f 3b
       -0.0068258457 0.010646685 0.015784398 0.0036585357
000150 ec c9 4a 3a 44 ac 8c ba a2 54 96 ba d6 47 07 bc
       0.0007735777 -0.0010732492 -0.0011469314 -0.008256873
000160 88 28 8d 3b 7a e8 e1 bb 49 b4 1b bc ab 26 88 3c
       0.00430781 -0.0068941684 -0.009503433 0.01662
000170 f2 db 95 3b 11 d2 00 3b b0 37 95 3c e0 4f df 3a
       0.0045733387 0.001965646 0.01821503 0.0017037354
000180 15 b6 82 3b 65 94 12 3c bf 6b 8c bc 13 03 5b 3b
       0.003988991 0.008946513 -0.017141221 0.003341858
000190 95 9a cd bb be d1 15 bc 1f 1c 13 bc d2 bc 5a 3c
       -0.006274531 -0.009144245 -0.008978873 0.013350682
0001a0 aa c2 73 bc cb 4b 84 3b ba f3 0a 3a 98 f1 9c 39
       -0.0148779545 0.0040373555 0.00053006003 0.0002993464
0001b0 86 86 ca bb 00 2f 5c bb 9f de b1 3c fc 50 82 ba
       -0.006180587 -0.003359735 0.0217126 -0.0009942348
0001c0 9e e9 39 bc 25 56 57 3b bb 07 a1 bb a8 58 46 bc
       -0.011347203 0.0032857743 -0.0049142516 -0.012106098
0001d0 07 94 ee bb f4 36 c6 bb 71 fb 8c bc 80 90 ff bb
       -0.00728083 -0.0060490314 -0.01720974 -0.007799208
0001e0 f2 88 4d bb ff 9e d6 3b 0c cb 07 bd d6 04 31 b9
       -0.0031362143 0.0065497155 -0.033152625 -0.00016881837
0001f0 cd 3b cc bb 8c 96 26 3c 6a 9e 90 3c b1 6f 8b bb
       -0.0062327147 0.010167729 0.017653663 -0.004255258
