ML Agents Test/Assets/Material/Better Models/RollerAgent-1999964.onnx (onnx, 82366 bytes, 8 tensors)

network_body._body_endoder.seq_layers.0.weight f4 [128, 12]
-0.40065166 -0.57228035 -0.051635347 -0.0299996 0.5083569 -0.022150164 0.0784036 0.14367914
-0.0917632 0.12242412 -0.3589895 -0.11797198 -0.13202886 0.17987622 0.09138354 0.12169371
0.33005708 0.045154024 -0.04052335 0.059836052 -0.119661205 0.09825727 0.55114853 -0.096494116
-0.022570295 0.588983 -0.01736132 0.12694108 0.8333597 0.40506175 0.04572685 -0.28379363
-0.32289764 0.21727249 0.24477464 0.43392843 -0.30304083 0.0637979 -0.15435086 -0.23396091
-0.6882023 -0.19610618 -0.21875641 0.058281075 0.21648815 -0.27987358 -0.19407338 0.014585217
-0.5367532 0.21433455 0.030351248 -0.23310703 -0.06690948 -0.14405988 0.14146242 -0.7504491
-0.20940997 0.32815164 -0.47309947 0.13451444 0.4558295 -0.11263116 0.19414 0.7251562
0.20706195 0.15104307 0.394363 0.3479203 -0.24995448 0.18591829 -0.2022259 0.028804628
0.2798545 0.1273797 -0.1502622 -0.37729177 0.27781856 0.4863404 0.1318745 -0.11142462
-0.21098368 0.15638138 0.026668407 -0.32682002 -0.08789476 -0.043069564 -0.51425827 -0.14257753
0.2919259 0.17160808 0.05183667 0.2551233 -0.19603059 -0.030528339 0.12601621 -0.14329313
-0.21382414 0.27024284 -0.3182282 -0.03579614 0.7133348 0.08271006 -0.034090705 -0.15307988
-0.06845793 -0.19573587 0.23783618 -0.3053305 -0.5145071 0.34919506 -0.009178312 -0.13851443
-0.23420364 0.13046919 0.51979923 -0.28913304 0.7208339 0.19758467 0.58305013 -0.020787137
-0.10765276 -0.037479818 0.09019978 -0.18668999 -0.19233789 -0.33990058 0.041685537 0.12339178
0.42432043 -0.14482336 0.26471403 0.33940524 0.7427891 0.10530927 -0.18349048 0.3157625
-0.114813924 0.23557532 -0.040075246 0.16583085 -0.07662471 0.28208423 -0.17099132 -0.5361807
-0.0013091627 -0.37123743 0.17179303 0.05957212 0.20325519 0.55576247 0.20583655 -0.25904274
0.032055963 -0.10111098 0.10523624 0.31860542 -0.27277023 -0.1724375 0.123224564 -0.08661612
0.31242105 0.05290475 -0.084412485 0.47201613 0.2248116 -0.34364605 -0.1754332 -0.34216377
0.56093216 0.41745418 0.44838628 0.47156066 -0.18562275 -0.26760298 -0.33666617 0.032912392
0.039334062 -0.54235935 -0.006899826 0.3362002 0.22586793 0.21737525 0.23626083 -0.042274907
0.09834796 0.27228296 -0.3697122 -0.06424342 0.05508207 0.203684 -0.34376633 0.75251514
-0.24907684 0.19390242 0.14652713 0.5272954 0.07185538 0.5909221 0.53496134 0.09733227
0.056009598 -0.39704132 -0.4911849 -0.09785394 0.22121277 -0.20416152 -0.097728685 -0.0075012264
-0.1954674 -0.55666494 -0.16238604 -0.010464416 -0.06595427 -0.32599834 -0.4771479 0.11854111
-0.09789354 -0.09827659 -0.052810166 0.49384475 0.26062602 0.3323493 0.2828464 -0.24369247
-0.18169355 0.23030785 0.08858217 -0.4986578 -0.3380916 0.22705911 0.29026192 0.6667546
0.07335418 -0.49002573 0.036063094 0.51851463 -0.4789131 -0.4473228 0.43010616 0.8116765
0.39809716 -0.011950562 -0.12125359 0.07226802 -0.26729193 -0.6434192 -0.05214586 -0.21883267
0.026092099 -0.035015315 -0.07323939 -0.04012146 -0.3857548 0.35002846 0.39567667 0.20993511
00000000: 3722 cdbe f780 12bf 967f 53bd b9c1 f5bc
00000010: ae23 023f 4374 b5bc 1192 a03d a020 133e
00000020: 58ee bbbd 7fb9 fa3d 79cd b7be 4b9b f1bd
00000030: 9332 07be 7931 383e 4b27 bb3d 8d3a f93d
00000040: 3efd a83e 6df3 383d d0fb 25bd a616 753d
00000050: ef10 f5bd 1c3b c93d 1218 0d3f b59e c5bd
00000060: 57e5 b8bc 97c7 163f 5439 8ebc d8fc 013e
00000070: 1057 553f 4164 cf3e 144c 3b3d 664d 91be
00000080: d752 a5be ae7c 5e3e 34a6 7a3e de2b de3e
00000090: 2b28 9bbe 79a8 823d 270e 1ebe 7393 6fbe
000000a0: 072e 30bf 0fd0 48be ae01 60be 23b8 6e3d
000000b0: 12af 5d3e 974b 8fbe 2cbb 46be d6f6 6e3c
000000c0: a868 09bf 847a 5b3e 2ea3 f83c 9cb3 6ebe
000000d0: d607 89bd 6f84 13be 86db 103e 6f1d 40bf
000000e0: 916f 56be 7e03 a83e 183a f2be 27be 093e
000000f0: 7c62 e93e 2aab e6bd a3cc 463e d6a3 393f
00000100: 0c08 543e 09ab 1a3e f2e9 c93e 9c22 b23e
00000110: 11f4 7fbe 5d61 3e3e 4e14 4fbe aff7 eb3c
00000120: 1749 8f3e d36f 023e 56de 19be 632c c1be
00000130: 3c3e 8e3e 9c01 f93e 1c0a 073e 9732 e4bd
00000140: 1b0c 58be 7122 203e b477 da3c f454 a7be
00000150: 2b02 b4bd b669 30bd 6ea6 03bf d8ff 11be
00000160: 5077 953e 07ba 2f3e b052 543d 859f 823e
00000170: 3ebc 48be 9116 fabc 650a 013e 6fbb 12be
00000180: b7f4 5abe 455d 8a3e ceee a2be f99e 12bd
00000190: 1c9d 363f e463 a93d b2a2 0bbd f9c0 1cbe
000001a0: ac33 8cbd fc6e 48be 548b 733e 4754 9cbe
000001b0: bdb6 03bf b2c9 b23e a160 16bc bad6 0dbe
000001c0: 14d3 6fbe b799 053e 9011 053f 3f09 94be
000001d0: 9288 383f a353 4a3e c642 153f c949 aabc
000001e0: 0d79 dcbd 7084 19bd aaba b83d a92b 3fbe
000001f0: 39f4 44be 7307 aebe 74be 2a3d d4b4 fc3d
00000200: 8740 d93e 934c 14be 9988 873e 86c6 ad3e
00000210: 6d27 3e3f 63ac d73d eee4 3bbe 9fab a13e
00000220: 9023 ebbd a83a 713e f125 24bd 90cf 293e
00000230: 6aed 9cbd 586d 903e 5918 2fbe 2343 09bf
00000240: 3698 abba d512 bebe 83ea 2f3e e501 743d
00000250: 2122 503e 7346 0e3f d1c6 523e 40a1 84be
00000260: 1d4d 033d 4613 cfbd 1986 d73d 4020 a33e
00000270: 8aa8 8bbe 7593 30be 295d fc3d cb63 b1bd
00000280: a7f5 9f3e a7b2 583d 74e0 acbd 19ac f13e
00000290: 0335 663e 60f2 afbe c3a4 33be 1730 afbe
000002a0: 4099 0f3f 8ebc d53e e392 e53e 6670 f13e
000002b0: e413 3ebe 4203 89be 825f acbe 25cf 063d
000002c0: c11c 213d 10d8 0abf f017 e2bb 6f22 ac3e
000002d0: ec49 673e 9e97 5e3e 5cee 713e 7428 2dbd
000002e0: a86a c93d ac68 8b3e eb4a bdbe 0e92 83bd
000002f0: bd9d 613d 8a92 503e 2402 b0be d5a4 403f
00000300: 000e 7fbe 5b8e 463e 350b 163e d5fc 063f
00000310: ea28 933d ac46 173f 3af3 083f 2456 c73d
00000320: 526a 653d 0049 cbbe 967c fbbe a667 c8bd
00000330: 9a85 623e b80f 51be fa25 c8bd d9cc f5bb
00000340: 9b28 48be 9881 0ebf 8748 26be f172 2bbc
00000350: 0813 87bd 41e9 a6be bb4c f4be aec5 f23d
00000360: 697c c8bd 3d45 c9bd 794f 58bd 38d9 fc3e
00000370: c670 853e b029 aa3e 3ed1 903e 858a 79be
00000380: e00d 3abe d2d5 6b3e 926a b53d 1350 ffbe
00000390: 581a adbe 2f82 683e 369d 943e 6eb0 2a3f
000003a0: b73a 963d a7e4 fabe e5b6 133d 60bd 043f
000003b0: 1934 f5be 7e07 e5be e036 dc3e 08ca 4f3f
000003c0: 64d3 cb3e 4acc 43bc cd53 f8bd 4101 943d
000003d0: 7dda 88be 1fb7 24bf e696 55bd ac15 60be
000003e0: 19bf d53c 386c 0fbd 89fe 95bd 6656 24bd
000003f0: a781 c5be ee36 b33e 2296 ca3e 3bf9 563e

network_body._body_endoder.seq_layers.0.bias f4 [128]
0.008296743 0.025517458 -0.0050133117 -0.005303447 0.00093807373 -0.015116932 0.0043875407 0.008073039
-0.0038277938 0.027448095 -0.0065606614 -0.010503963 0.012757567 0.01340148 -0.010606383 0.001726656
-0.0114139095 0.021206282 0.0010353802 0.0074009295 -0.0031045 -0.009620511 0.0077462085 -0.005217584
-0.00529213 0.01425174 -0.012023518 -0.014324094 -0.007805364 0.0035234368 -0.0031421727 7.0541905e-06
0.004520363 0.011704469 0.0042857244 -0.003803995 -0.0143738 -0.010575925 -0.010288412 0.0012087502
-0.010598265 -0.008829641 -0.011645032 0.022169504 0.026590656 -0.0071096723 -0.013571813 0.013597349
-0.005161276 0.008331852 0.015165479 -0.0034201443 0.00472067 0.006155459 0.0042992323 -0.0040293317
-0.006255773 0.017841596 0.0042640674 -0.00042240103 -0.0063389856 0.0025788199 0.022688167 0.0016665924
0.012285388 -0.023046102 -0.0027052 0.021490045 0.002340692 -0.00030450363 0.00057211646 -0.0072993613
0.0059170434 -5.2037118e-05 -0.006173669 -0.0038701687 -0.02285386 -0.00774469 -0.024831265 0.008334903
-0.014514179 0.007726433 -0.007874858 -0.0064013624 0.006025147 -0.002324865 -0.028793963 -0.0020315833
0.0005610111 -0.007073681 -0.014177762 -0.008851568 -0.008414021 -2.6060465e-05 -0.010708642 0.017032536
0.019468874 0.00782867 0.00071377645 0.0053852214 -0.0011507941 0.00084599626 -0.0022550013 0.008624163
0.02897231 -0.007788438 0.0019322954 -0.00015655904 -0.0036288383 0.00055648515 -0.011360421 -0.010043399
-0.012844513 0.010155239 -0.013039727 0.003447769 -0.000671963 0.0011124851 -0.033941053 -0.0034606715
-0.022016462 -0.007835182 0.002091089 0.0020204075 -0.009196204 -0.00010649512 0.031804677 -0.0072613093
00000000: 10ef 073c fd09 d13c b546 a4bb 8ac8 adbb
00000010: 10e9 753a 02ad 77bc 5cc5 8f3b c844 043c
00000020: b9db 7abb d4da e03c d1fa d6bb d018 2cbc
00000030: 1d05 513c e291 5b3c 65c6 2dbc f650 e23a
00000040: 6801 3bbc ccb8 ad3c 98b5 873a 7f83 f23b
00000050: de74 4bbb 599f 1dbc e8d3 fd3b 44f8 aabb
00000060: 9b69 adbb 2180 693c 4afe 44bc 9baf 6abc
00000070: 24c4 ffbb 76e9 663b e9ec 4dbb 09b3 ec36
00000080: 8e1f 943b 1ac4 3f3c 436f 8c3b 724c 79bb
00000090: 1680 6bbc a546 2dbc ba90 28bc ed6e 9e3a
000000a0: 58a4 2dbc 33aa 10bc ceca 3ebc d29c b53c
000000b0: a6d4 d93c 41f8 e8bb 4f5c 5ebc 6ac7 5e3c
000000c0: ec1f a9bb 5282 083c a178 783c 8024 60bb
000000d0: daaf 9a3b bcb3 c93b 93e0 8c3b 7c08 84bb
000000e0: 3afd ccbb 8a28 923c 97b9 8b3b b575 ddb9
000000f0: 44b7 cfbb 6b01 293b 89dc b93c 9071 da3a
00000100: a748 493c 2ecb bcbc ba49 31bb e40b b03c
00000110: 4c66 193b c9a5 9fb9 16fa 153a 7b2f efbb
00000120: c2e3 c13b 6e42 5ab8 7d4c cabb a8a2 7dbb
00000130: 0538 bbbc 2bc7 fdbb f06a cbbc 1e8f 083c
00000140: e1cc 6dbc 052e fd3b 8c05 01bc 85c2 d1bb
00000150: 996e c53b c35c 18bb 51e1 ebbc 5024 05bb
00000160: d110 133a 56ca e7bb d849 68bc 2b06 11bc
00000170: f6da 09bc 6c9c dab7 4d73 2fbc d187 8b3c
00000180: 307d 9f3c d243 003c ba1c 3b3a 8376 b03b
00000190: 3ed6 96ba d9c5 5d3a a5c8 13bb 5d4c 0d3c
000001a0: 5657 ed3c 2736 ffbb 1345 fd3a ff29 24b9
000001b0: ced1 6dbb 16e1 113a 0f21 3abc 128d 24bc
000001c0: cb71 52bc 2962 263c 94a4 55bc f7f3 613b
000001d0: ac26 30ba ced0 913a c605 0bbd 6fcc 62bb
000001e0: de5b b4bc 235f 00bc a70a 093b d068 043b
000001f0: adab 16bc 2256 dfb8 9f45 023d 47f0 edbb

network_body._body_endoder.seq_layers.2.weight f4 [128, 128]
0.14813466 0.017227229 -0.13272972 0.1187092 0.0038534263 0.0546246 -0.0009829737 -0.15609439
-0.019142434 -0.11993636 0.10168788 0.06276284 -0.1368353 -0.067393236 0.059163593 -0.009713562
0.096059285 -0.035942413 -0.05366723 0.0043151905 0.13151336 -0.017638998 -0.09017624 0.05438807
0.18090503 0.002243221 0.10206302 0.021089137 -0.12579133 0.01375037 0.10038525 0.13780478
-0.004898246 -0.0706312 0.052015815 -0.06287747 0.05449675 0.037614573 -0.1647022 -0.005745866
-0.10506862 -0.15531398 -0.104229644 -0.043143302 0.08497351 -0.013923712 0.045442402 -0.0019754337
0.03672999 0.08017903 0.141796 -0.016456505 0.00021163408 0.016472453 -0.021064721 -0.14860718
-0.09748273 -0.03211353 -0.10509219 0.06970836 -0.057208765 -0.0396337 0.06285153 0.02299065
0.064326644 -0.08371707 -0.18056442 0.06388862 -0.080749676 -0.040462147 0.08352216 -0.11289498
-0.23880027 -0.10685993 0.18103403 0.08514513 0.0336405 0.0039582765 0.0056854617 0.052675582
0.03942521 -0.21982452 -0.005503385 -0.037938006 0.17021917 0.011392107 -0.009116017 0.1140555
0.04655962 0.100273326 0.05019002 0.16720295 -0.03030908 0.062220536 0.11445111 0.0035187034
0.019216428 0.06194 0.07391298 0.0653795 -0.08403467 0.07952686 -0.04966933 0.099308856
0.052511133 0.1830127 -0.05443613 -0.057523035 -0.10399243 -0.029431934 0.17668024 0.12068252
0.036149077 -0.16205172 0.008976398 -0.07370857 -0.2051014 -0.12855318 0.023334553 -0.20852615
0.0005396 -0.0723237 -0.13347888 -0.15205383 -0.07376618 0.17427488 -0.05515907 -0.23968777
-0.033996653 -0.02688732 0.12300556 -0.03149476 -0.0038137452 0.09481525 0.014348538 0.018427664
0.10192862 0.0631684 0.07496365 0.004636473 0.001961006 0.014045116 0.15171096 -0.107146315
0.028644228 0.067830466 0.0033787321 -0.06432986 -0.17130822 0.10221068 -0.054026455 0.08968088
0.10335752 -0.06515708 0.04705374 0.06611034 -0.03348946 0.11205695 -0.082436904 -0.070638455
-0.04834711 -0.06941918 -0.14516112 -0.04747055 -0.18206023 0.068361476 -0.06253284 0.072447754
-0.17624712 -0.059248164 -0.12448452 0.1014792 -0.04762014 -0.079646215 0.03555757 0.027270408
0.13838023 -0.023542829 0.024860397 0.06307696 -0.18969685 0.055804513 -0.047108214 0.019834042
-0.09407292 0.039587665 -0.00077244453 -0.0504864 0.03762984 0.051961917 -0.072665334 0.03819957
-0.074440114 -0.043618858 0.05202901 0.06243444 -0.048778694 -0.19423217 -0.03333672 -0.0032768927
-0.107763186 -0.09581833 -0.1071356 0.0076222606 -0.05054519 -0.05377881 0.012286378 0.0103737125
-0.038639445 -0.035276596 0.07272422 0.19337346 0.07537547 -0.04298225 0.10659909 -0.1380503
0.034605 0.17110583 -0.079790026 -0.20685907 0.019460753 0.0070342203 -0.056476522 0.02501944
0.058898486 0.06991452 -0.09938771 0.012858334 -0.02985199 -0.10164835 -0.062246058 -0.04197285
0.06393096 0.06076853 -0.03298456 -0.034284983 0.037076365 -0.06942956 0.08901099 0.012033106
-0.05110559 0.05761928 0.20069009 -0.09838033 0.06981414 -0.15618704 0.018054873 0.079006076
0.019136483 -0.010789427 -0.12697281 -0.06375609 0.0727996 -0.13268778 0.06271759 -0.1447201
00000000: 9db0 173e 1e20 8d3c 4dea 07be cf1d f33d
00000010: c489 7c3b 0bbe 5f3d 20d7 80ba 35d7 1fbe
00000020: 98d0 9cbc 32a1 f5bd bc41 d03d ce89 803d
00000030: 8e1e 0cbe 7705 8abd 8655 723d a225 1fbc
00000040: bbba c43d 5a38 13bd 2bd2 5bbd 7166 8d3b
00000050: 70ab 063e a97f 90bc 52ae b8bd 06c6 5e3d
00000060: 2b3f 393e 0103 133b 6b06 d13d 20c3 ac3c
00000070: 71cf 00be 3b49 613c c896 cd3d b21c 0d3e
00000080: 7781 a0bb 17a7 90bd 890e 553d e7c5 80bd
00000090: fc37 5f3d bd11 1a3d b2a7 28be d147 bcbb
000000a0: 372e d7bd a10a 1fbe 5a76 d5bd 08b7 30bd
000000b0: 9706 ae3d 4820 64bc d021 3a3d 4776 01bb
000000c0: 3072 163d e734 a43d f832 113e cbcf 86bc
000000d0: 17ea 5d39 3df1 863c ec8f acbc 7b2c 18be
000000e0: 07a5 c7bd 7a89 03bd 933a d7bd 42c3 8e3d
000000f0: bd53 6abd f256 22bd 4eb8 803d e356 bc3c
00000100: b0bd 833d db73 abbd e1e5 38be 09d8 823d
00000110: 1660 a5bd a3bb 25bd ab0d ab3d 7c35 e7bd
00000120: 0f88 74be 61d9 dabd fc60 393e 9260 ae3d
00000130: 9fca 093d 6eb4 813b 1c4d ba3b 5ac2 573d
00000140: 547c 213d ae19 61be bd55 b4bb e264 1bbd
00000150: ef4d 2e3e f6a5 3a3c 595b 15bc ee95 e93d
00000160: 4db5 3e3d 1a5c cd3d 0d94 4d3d 4037 2b3e
00000170: bf4a f8bc f6da 7e3d 5865 ea3d 0c9a 663b
00000180: c56b 9d3c ccb4 7d3d b05f 973d b0e5 853d
00000190: 5e1a acbd fade a23d 1172 4bbd 7162 cb3d
000001a0: ea15 573d ae67 3b3e 6bf8 5ebd 469d 6bbd
000001b0: fcf9 d4bd 3d1b f1bc aaeb 343e 6628 f73d
000001c0: 0e11 143d e3f0 25be be11 133c 85f4 96bd
000001d0: 1a06 52be 72a3 03be 1b28 bf3c e187 55be
000001e0: f173 0d3a 731e 94bd b0ae 08be 00b4 1bbe
000001f0: b912 97bd 1d75 323e 7aee 61bd b670 75be
00000200: 1340 0bbd cc42 dcbc 57ea fb3d a600 01bd
00000210: 07f0 79bb 7f2e c23d 2116 6b3c 9df5 963c
00000220: f4bf d03d 6f5e 813d 8b86 993d 8eed 973b
00000230: 3984 003b 7c1d 663c 1e5a 1b3e 876f dbbd
00000240: 4da7 ea3c b3ea 8a3d b86d 5d3b 60bf 83bd
00000250: 6c6b 2fbe d553 d13d d84a 5dbd 9caa b73d
00000260: 1cad d33d 1371 85bd 6cbb 403d dc64 873d
00000270: 3e2c 09bd 1d7e e53d aed4 a8bd e5aa 90bd
00000280: 9f07 46bd a52b 8ebd 1ea5 14be 7b70 42bd
00000290: ff6d 3abe 1a01 8c3d 3811 80bd 7d5f 943d
000002a0: 207a 34be 34ae 72bd bdf1 febd 54d4 cf3d
000002b0: 560d 43bd 8e1d a3bd d1a4 113d 3166 df3c
000002c0: 8cb3 0d3e e4dc c0bc 08a8 cb3c 7e2e 813d
000002d0: e43f 42be 4693 643d 8bf4 40bd 007b a23c
000002e0: 4ea9 c0bd ad26 223d e07d 4aba d4ca 4ebd
000002f0: bf21 1a3d 05d6 543d 90d1 94bd 2777 1c3d
00000300: 0f74 98bd b0a9 32bd 5f1c 553d 41bb 7f3d
00000310: 2bcc 47bd cce4 46be 168c 08bd 23c1 56bb
00000320: f2b2 dcbd 673c c4bd e969 dbbd 28c4 f93b
00000330: 7908 4fbd 2b47 5cbd ce4c 493c 81f6 293c
00000340: 6544 1ebd 317e 10bd 70f0 943d b103 463e
00000350: 745e 9a3d 280e 30bd a050 da3d 0f5d 0dbe
00000360: f9bd 0d3d 5e36 2f3e f468 a3bd ddd2 53be
00000370: 286c 9f3c 517f e63b ed53 67bd 92f5 cc3c
00000380: 8a3f 713d 582f 8f3d c98b cbbd c3ab 523c
00000390: 298c f4bc 032d d0bd b9f5 7ebd b9eb 2bbd
000003a0: 3cee 823d 6ce8 783d d11a 07bd 696e 0cbd
000003b0: 63dd 173d 1631 8ebd 654b b63d 8126 453c
000003c0: 1854 51bd 3202 6c3d b481 4d3e a07b c9bd
000003d0: b7fa 8e3d 7fef 1fbe d0e7 933c f0cd a13d
000003e0: 1dc4 9c3c 23c6 30bc 2905 02be 8e92 82bd
000003f0: f517 953d 4edf 07be 1472 803d 8231 14be

network_body._body_endoder.seq_layers.2.bias f4 [128]
-0.00045472593 -0.004657989 -0.005783084 0.004370772 -0.009540794 -0.007952548 -0.010690204 -0.0012907714
-0.0054613915 -0.005835376 -0.0037578396 -0.0015921392 -0.0053504976 -0.006818521 -0.00966491 -0.009975728
-0.0034888852 -0.007866953 -9.9671546e-05 -0.005844837 -0.004840444 -0.004609294 -0.0019124348 -0.004568044
-0.0022782118 0.0008111999 -0.010750324 0.007416396 -0.00042575606 -0.011374801 -0.0017012438 -0.00094251515
0.0067338212 -0.008116264 0.005578128 0.0008675666 -0.009200532 -0.0039594066 0.014330907 -0.0020224527
-0.0066481186 -0.0022970492 -0.00169705 -0.0073846458 0.0008909738 -0.007258905 -0.0059818258 0.016477557
-0.0024934101 0.0014763874 0.00016288503 -0.00839179 -0.0019233619 -0.003289115 -0.007961948 0.00046037984
-0.0035203472 -0.0045801657 -0.010548067 0.0002356982 -0.002683773 -0.008171775 -0.0020679194 -0.008859037
-0.0061859945 -0.0022977116 0.0008539556 -0.0072725527 -0.006328413 -0.0089254035 -0.0017988343 0.0018997022
-0.0071152593 -0.004973512 0.005711326 -0.0036832585 -0.004064791 0.00826217 -0.0029518723 -0.0040504807
-0.005198738 0.0015352987 -0.00095011614 0.0077683437 -0.015364261 -0.0036402838 -0.0037681079 0.001994551
0.003633709 0.0023856738 0.001235637 -0.0028026938 0.0002449993 0.00022295777 -0.010316095 0.0071974853
0.018272815 -0.010557485 -0.008427356 -0.0063942745 -0.0035344623 -0.0070335297 -0.0014366828 -0.0019268837
0.0049114334 0.0076752375 -0.007155418 -0.0031671638 0.0071427296 -0.002233283 0.0029365218 -5.6582445e-05
-0.0077991793 -0.008797621 -0.005050541 -0.0052161324 0.0045738723 -0.011190611 -0.004546765 -0.0033709418
-0.002062712 -0.0067594163 -0.010828474 -0.0026298123 -0.0007607008 0.008501043 0.005984961 -0.0017366493
00000000: 4868 eeb9 0ba2 98bb 0680 bdbb b138 8f3b
00000010: fe50 1cbc 674b 02bc f725 2fbc 1a2f a9ba
00000020: 79f5 b2bb af36 bfbb 1646 76bb 54af d0ba
00000030: 3a53 afbb e66d dfbb 9259 1ebc 3c71 23bc
00000040: c8a5 64bb 64e4 00bc c106 d1b8 0c86 bfbb
00000050: 969c 9ebb 8f09 97bb aaaa faba 88af 95bb
00000060: 0d4e 15bb b4a6 543a 2122 30bc 3d05 f33b
00000070: 0338 dfb9 605d 3abc 45fc deba 1f13 77ba
00000080: 63a7 dc3b 14fa 04bc bbc8 b63b 696d 633a
00000090: d4bd 16bc e9bd 81bb 2ecc 6a3c 208b 04bb
000000a0: 76d8 d9bb 178a 16bb 8c6f deba e6fa f1bb
000000b0: 3d90 693a 1cdc edbb 3103 c4bb f1fb 863c
000000c0: 7b68 23bb 5783 c13a 1ecc 2a39 b87d 09bc
000000d0: 5119 fcba 318e 57bb d572 02bc 235f f139
000000e0: a0b5 66bb 3715 96bb cdd1 2cbc c125 7739
000000f0: 3de2 2fbb e9e2 05bc ee85 07bb 7f25 11bc
00000100: e2b3 cabb 3495 16bb fddb 5f3a 984e eebb
00000110: 935e cfbb db3b 12bc ddc6 ebba 6eff f83a
00000120: 1f27 e9bb d8f8 a2bb 1326 bb3b d362 71bb
00000130: f031 85bb 0d5e 073c 3374 41bb e5b9 84bb
00000140: 2d5a aabb 133c c93a 3711 79ba 978d fe3b
00000150: 62ba 7bbc d491 6ebb 5cf2 76bb 03b7 023b
00000160: 8523 6e3b f758 1c3b 19f5 a13a 66ad 37bb
00000170: 4073 8039 c5c9 6939 d704 29bc e2d8 eb3b
00000180: dfb0 953c 4df9 2cbc e512 0abc 1087 d1bb
00000190: 70a2 67bb 8679 e6bb 134f bcba 7d8f fcba
000001a0: 17f0 a03b 8f80 fb3b ff77 eabb 3190 4fbb
000001b0: 8f0d ea3b 455c 12bb a972 403b f052 6db8
000001c0: 4290 ffbb e623 10bc 027f a5bb 17ec aabb
000001d0: 6ce0 953b d358 37bc 07fd 94bb 05eb 5cbb
000001e0: 912e 07bb 187e ddbb e969 31bc ee58 2cbb
000001f0: c469 47ba f547 0b3c 7e1d c43b 48a0 e3ba

action_model._continuous_distribution.log_sigma f4 [1, 4]
-0.2199018 -0.19533212 -0.16261011 -0.1409699
00000000: f02d 61be 2505 48be 4483 26be 6a5a 10be

action_model._continuous_distribution.mu.weight f4 [4, 128]
0.01890066 0.014330839 -0.03088361 0.02878141 -0.0071937316 -0.008009351 -0.016198285 -0.018163633
-0.0005323971 -0.0031055445 -0.0006216185 0.013126551 -0.017880475 -0.010794001 -0.010687797 -0.008767978
-0.013859915 -0.00589079 -0.0041755536 0.00073973567 -0.006635724 0.012805322 0.025416225 -5.3335596e-05
0.02211353 0.023722315 -0.014038642 -0.030644916 -0.0047152666 -0.0077642053 -0.020808702 0.010666394
0.063933045 -0.02794646 -0.031037904 0.01908658 -0.012592026 -0.03349248 -0.060405992 -0.0122633735
-0.0016042656 -0.03684328 0.00751387 0.011709556 -0.070257954 -0.0014754747 0.0038440838 -0.031492103
0.0028009112 -0.0050416715 -0.007982217 0.0023563714 0.0052262903 -0.06747235 -0.0121508 -0.023489026
-0.029286733 -0.026784241 0.006460556 0.024757067 0.021473208 -0.00480337 0.008814829 -0.0075664185
0.012507669 0.005947158 0.022356419 0.017225914 0.005804911 0.00030494458 0.0035672653 0.016251624
0.00015589244 0.00031210523 -0.03471042 0.0027515055 -0.00052547763 -0.004308572 -0.0140768355 -0.047683015
-0.05083066 0.008388549 0.018642625 0.04354713 0.017134659 -0.011524631 0.006645033 0.009224717
0.012242843 -0.023088586 0.028148795 -0.032905154 0.0059846737 0.017056648 -0.013253463 -0.030649947
0.065285295 -0.029561916 -0.012448156 0.010086777 0.018028451 -0.032319378 0.010163177 0.0038800826
0.030305067 -0.031842418 -0.00825867 0.007204738 0.0117557505 0.01156106 0.054703668 0.01852065
0.0009232253 0.02680219 -0.00703 -0.0055267466 0.015892344 -0.01995498 -0.0100666145 0.026589997
-0.0015696683 0.005409337 0.0043371357 0.017018182 0.018144807 -0.035633504 -0.01724055 0.019855874
-0.01889147 -0.012818257 0.012257282 0.01616382 0.004759014 -0.022222083 -0.01181969 -0.013549951
-0.013348938 -0.024338204 0.025937097 0.013360806 -0.038064934 -0.013169037 -0.026359558 0.007563314
0.007949291 0.010506361 0.040320147 -0.024026422 0.040157672 0.0014362951 -0.036245514 0.00608705
0.0013511304 0.0049457317 -0.0032735206 -0.07252272 -0.0031583102 0.023902694 -0.0009426204 -0.012844824
0.031152057 -0.005489909 -0.012310795 0.0051638945 0.00030817493 -0.010156194 -0.016761608 0.031317372
-0.0033953933 0.009479991 0.016956562 -0.009813276 -0.054770738 0.009200844 -0.03259341 -0.02136357
-0.025977785 -0.0020250122 0.0385048 -0.0073568434 0.032001913 -0.048492637 -0.049966753 0.017584464
-0.035564188 0.009319493 0.0025487836 0.009842248 -0.0051332 -0.00828688 -0.024280831 -0.00026335145
0.031237777 -0.06281143 0.018358873 0.015933488 -0.010474123 -0.0071266796 0.010362465 -0.006114136
0.014944638 -0.00404279 -0.025323674 -0.037409898 0.034474403 -0.051762614 0.008559017 -0.036155
7.428501e-05 0.030845754 0.017307756 0.028001936 0.023458399 0.01560574 -0.007355929 -0.04610521
0.019641357 0.04366554 0.0087737 0.031008588 -0.002527293 -0.03758155 -0.0024208 -0.07275037
0.07526177 0.0018103987 0.026826354 0.015913695 0.00013263206 0.02048671 0.02348959 0.023333218
-0.011412161 -0.015182526 0.018209143 0.023311205 -0.03380899 -0.030119505 0.016986428 0.028089931
0.011175396 -0.00048617012 0.014768929 -0.023778593 0.036044173 -0.026992004 0.017426632 -0.024284817
0.0096470555 -0.02878891 0.00471028 -0.0027244512 0.005094197 -0.03733033 -0.021608945 -0.008035799
00000000: 8fd5 9a3c e5cb 6a3c a0ff fcbc fec6 eb3c
00000010: 65b9 ebbb a739 03bc 44b2 84bc e6cb 94bc
00000020: 9190 0bba 6486 4bbb 1df4 22ba bf10 573c
00000030: 137a 92bc 52d9 30bc df1b 2fbc 91a7 0fbc
00000040: b214 63bc 8707 c1bb 15d3 88bb d2ea 413a
00000050: 7d70 d9bb 6acd 513c b035 d03c a9b4 5fb8
00000060: 6f27 b53c 4d55 c23c 5502 66bc 0c0b fbbc
00000070: 8682 9abb e06a febb 0377 aabc 19c2 2e3c
00000080: 54ef 823d f9ef e4bc 3443 febc 765b 9c3c
00000090: c94e 4ebc 692f 09bd 466c 77bd 51ec 48bc
000000a0: 3946 d2ba fbe8 16bd e936 f63b 70d9 3f3c
000000b0: 67e3 8fbd b764 c1ba 06ed 7b3b ddfd 00bd
000000c0: 7e8f 373b 9b34 a5bb d8c7 02bc 5a6d 1a3b
000000d0: 4d41 ab3b f22e 8abd 2614 47bc 0f6c c0bc
000000e0: bbea efbc a06a dbbc 12b3 d33b 55cf ca3c
000000f0: 95e8 af3c 9765 9dbb 136c 103c b8ef f7bb
00000100: f7ec 4c3c 61e0 c23b cf24 b73c 5c1d 8d3c
00000110: 1f37 be3b f8e0 9f39 c8c8 693b 2022 853c
00000120: 0f77 2339 0ea2 a339 832c 0ebd 9a52 343b
00000130: 35c0 09ba ec2e 8dbb 87a2 66bc 444f 43bd
00000140: cf33 50bd 2070 093c 6bb8 983c 7a5e 323d
00000150: fc5d 8c3c ced1 3cbc 94be d93b 4423 173c
00000160: 3596 483c 4624 bdbc 4d98 e63c 8ec7 06bd
00000170: 151b c43b 62ba 8b3c 0e25 59bc 9915 fbbc
00000180: 4cb4 853d d52b f2bc 5af3 4bbc 0243 253c
00000190: 67b0 933c 5361 04bd 7483 263c fc48 7e3b
000001a0: 5542 f83c 326d 02bd 5f4f 07bc b915 ec3b
000001b0: 319b 403c 9a6a 3d3c f410 603d 9eb8 973c
000001c0: 9a04 723a 4490 db3c ea5b e6bb b619 b5bb
000001d0: a930 823c a078 a3bc 71ee 24bc 44d3 d93c
000001e0: 54bd cdba cf40 b13b 881e 8e3b b769 8b3c
000001f0: 6ba4 943c 70f4 11bd 0e3c 8dbc c9a8 a23c
00000200: 49c2 9abc ab03 52bc c4d2 483c fd69 843c
00000210: 81f1 9b3b 160b b6bc 5fa7 41bc 9d00 5ebc
00000220: 81b5 5abc ea60 c7bc 097a d43c 48e7 5a3c
00000230: fae9 1bbd f2c2 57bc 00f0 d7bc add5 f73b
00000240: be3d 023c df22 2c3c bd26 253d 0fd3 c4bc
00000250: 5f7c 243d 1142 bc3a 2d76 14bd e075 c73b
00000260: 6a18 b13a ce0f a23b 9088 56bb cb86 94bd
00000270: a7fb 4ebb 95cf c33c 2f1a 77ba 1973 52bc
00000280: 9932 ff3c b2e4 b3bb 37b3 49bc e335 a93b
00000290: 8a92 a139 2a66 26bc a44f 89bc a546 003d
000002a0: 3f85 5ebb f751 1b3c 7de8 8a3c ddc7 20bc
000002b0: 4857 60bd 23bf 163c ab80 05bd a702 afbc
000002c0: 5dcf d4bc 11b6 04bb 36b7 1d3d ad11 f1bb
000002d0: 7014 033d 37a0 46bd f0a9 4cbd 4b0d 903c
000002e0: c1ab 11bd c9b0 183c 7e09 273b 6141 213c
000002f0: 6734 a8bb b2c5 07bc 98e8 c6bc 6f12 8ab9
00000300: 5ee6 ff3c 47a3 80bd 5965 963c f286 823c
00000310: a89b 2bbc ec86 e9bb 54c7 293c 1759 c8bb
00000320: 5bda 743c 6179 84bb 9873 cfbc 1f3b 19bd
00000330: 0835 0d3d 0905 54bd 1f3b 0c3c 4417 14bd
00000340: 76c9 9b38 3cb0 fc3c ffc8 8d3c 5164 e53c
00000350: d42b c03c 38af 7f3c 010a f1bb d1d8 3cbd
00000360: e9e6 a03c a3da 323d 91bf 0f3c b905 fe3c
00000370: f1a0 25bb 1def 19bd 49a6 1ebb 25fe 94bd
00000380: d822 9a3d e64a ed3a f1c2 db3c 705d 823c
00000390: 2613 0b39 bfd3 a73c 3e6d c03c 4e25 bf3c
000003a0: 13fa 3abc 21c0 78bc 572b 953c 24f7 be3c
000003b0: 4c7b 0abd 2ebd f6bc 1f27 8b3c db1c e63c
000003c0: 0219 373c a6e4 feb9 61f9 713c 53cb c2bc
000003d0: 0ea3 133d 561e ddbc 4cc2 8e3c f4f0 c6bc
000003e0: af0e 1e3c b8d6 ebbc b158 9a3b b58c 32bb
000003f0: 39ed a63b b0e7 18bd 3e05 b1bc 95a8 03bc

action_model._continuous_distribution.mu.bias f4 [4]
0.0055294815 1.2071686e-05 -0.0026625826 0.0030356084
00000000: a730 b53b 7f87 4a37 b97e 2ebb 0ff1 463b

action_model._discrete_distribution.branches.0.weight f4 [1, 128]
-0.027837394 0.002518842 -0.005755995 0.0135859 0.0016978631 0.011074936 0.0071326056 0.008748135
-0.0028162927 0.005219318 0.0072983815 0.00508298 -0.018834814 0.002969331 -0.019772153 0.002798942
0.0037048776 -0.0040744217 -0.004637094 -0.0002552297 0.002067386 -0.0025717858 -0.02119661 0.006859377
0.003981044 -0.0016861685 0.00027262475 -0.0012861352 0.003465859 0.015655663 0.0024945845 0.0010147098
0.0067540407 0.0041718804 0.0036485386 0.0092183715 -0.0015042793 -0.0056596226 -0.0006281445 0.0041687316
-0.0010671922 -0.012870955 0.008274245 -0.011267228 -0.010831329 -0.010041635 -0.002613225 0.0075745503
-0.015041073 -0.0024220943 0.0019806516 -0.0022392552 -0.02021183 -0.006875094 0.0038012427 0.009275283
0.0081821885 -0.026905058 -0.0082145175 -0.011444586 -0.007663864 0.00020358886 0.006928328 0.003651257
-0.003377109 0.019075284 -0.008284553 0.0074538155 0.02052229 -0.008105701 -0.015726404 -0.008657188
0.0062702433 -0.008782613 -0.0060603274 -0.0058416147 0.001683658 0.002692608 0.002153364 -0.0011086046
0.0011186617 -0.0075709294 -0.0055375877 -0.003875661 0.009780369 0.019061072 -0.0013570001 -0.004609222
0.011101622 0.01741869 0.009081161 -0.010014107 0.0023939228 -0.023617042 -0.0016949115 -0.00079348165
0.0016574729 0.0009857565 0.00020319459 -0.004446545 -0.0032567203 -0.011230021 0.0016146785 0.010434105
-0.00091422145 -0.008318585 0.0023529918 -0.014212224 -0.009212761 0.0029415619 -0.01215125 0.0038366334
0.0013789615 -0.008889093 0.007461477 -0.010989468 -0.0027624322 -0.0022537594 0.0001574922 -0.0024538867
-0.017005699 -0.003909113 0.009171013 -0.002872899 -0.007900531 -0.003298951 0.010006628 -0.0018746017
00000000: 3f0b e4bc 2813 253b c99c bcbb 6597 5e3c
00000010: d58a de3a a673 353c a2b8 e93b 5654 0f3c
00000020: 8d91 38bb d006 ab3b 4327 ef3b 208f a63b
00000030: 784b 9abc 1c99 423b 36f9 a1bc 746e 373b
00000040: 88cd 723b ba82 85bb c4f2 97bb 5ad0 85b9
00000050: fb7c 073b 688b 28bb 83a4 adbc a0c4 e03b
00000060: 6b73 823b 6d02 ddba 13ef 8e39 8993 a8ba
00000070: 7723 633b 4e40 803c 2f7c 233b 0300 853a
00000080: 0051 dd3b 45b4 883b 521c 6f3b a708 173c
00000090: 3d2b c5ba 5b74 b9bb 10aa 24ba db99 883b
000000a0: 07e1 8bba b3e0 52bc b390 073c 2e9a 38bc
000000b0: e375 31bc ab85 24bc a442 2bbb ef33 f83b
000000c0: d56e 76bc 00bc 1ebb d2cd 013b 78c0 12bb
000000d0: 4893 a5bc 7848 e1bb 451e 793b 5bf7 173c
000000e0: 960e 063c ff67 dcbc 2f96 06bc 1382 3bbc
000000f0: 2721 fbbb 787a 5539 0707 e33b ed49 6f3b
00000100: 7d52 5dbb c543 9c3c efbb 07bc 233f f43b
00000110: 5d1e a83c c6cd 04bc a9d4 80bc e1d6 0dbc
00000120: 9d76 cd3b f3e4 0fbc b695 c6bb 046b bfbb
00000130: 30ae dc3a 7776 303b 741f 0d3b 994e 91ba
00000140: 0fa0 923a 8f15 f8bb a774 b5bb cdfe 7dbb
00000150: d73d 203c f725 9c3c 5edd b1ba f508 97bb
00000160: 94e3 353c a4b1 8e3c 26c9 143c 3612 24bc
00000170: 5ce3 1c3b 8778 c1bc cb27 deba a701 50ba
00000180: 903f d93a 8034 813a a210 5539 53b4 91bb
00000190: b36e 55bb 1ffe 37bc 9fa3 d33a cff3 2a3c
000001a0: 5da8 6fba ad4a 08bc a734 1a3b 63da 68bc
000001b0: 1ff1 16bc 38c7 403b 0916 47bc 0770 7b3b
000001c0: 45be b43a 8fa3 11bc 687f f43b 2b0d 34bc
000001d0: ec09 35bb cfb3 13bb 7e24 2539 63d1 20bb
000001e0: 894f 8bbc 0418 80bb 0442 163c 3f47 3cbb
000001f0: 3b71 01bc 3733 58bb d7f2 233c 32b5 f5ba
