ML Agents Test/Assets/Material/Better Models/RollerAgent-2000005.onnx (onnx, 82366 bytes, 8 tensors)

network_body._body_endoder.seq_layers.0.weight f4 [128, 12]
0	0x3ef3b461	0.47598556
1	0xbe154993	-0.14578848
2	0x3f1dac01	0.6159058
3	0x3f07ff98	0.5312438
4	0x3e92a18f	0.28638884
5	0xbdb9e75e	-0.09077333
6	0xbd8de750	-0.06928885
7	0x3eedc53c	0.4643954
8	0x3eb8888e	0.36041683
9	0xbea1286e	-0.31476158
10	0xbeec0bd2	-0.46102768
11	0x3ec0fb0e	0.3769154
12	0x3e96c374	0.29445994
13	0x3e3d76c8	0.18502343
14	0x3f5de1ca	0.8667265
15	0x3de94820	0.1139071
16	0x3e066910	0.13126016
17	0xbe959a7b	-0.29219422
18	0x3e026075	0.12732108
19	0xbe987dc6	-0.29783458
20	0xbd3808bb	-0.0449302
21	0x3f2b6602	0.66952527
22	0x3e234db4	0.1594761
23	0xbe1e5048	-0.15460312
24	0x3e659d3d	0.22423263
25	0x3e4c7c9d	0.19969411
26	0x3e9239aa	0.2855962
27	0x3e440d79	0.19145764
28	0x3ec3c68d	0.3823742
29	0xbe371e3a	-0.17882624
30	0x3f3b51cf	0.73171705
31	0x3f062421	0.5239888
32	0x3d3e2628	0.046423107
33	0xbe938042	-0.2880879
34	0xbdce0be1	-0.100608595
35	0x3dc2f66d	0.09519658
36	0xbe0add60	-0.1356101
37	0xbd813248	-0.063084185
38	0xbc6fab41	-0.014628232
39	0x3f1f187d	0.6214674
40	0x3e164858	0.14676034
41	0x3f1fc96c	0.6241672
42	0x3e3e6989	0.18594946
43	0x3e448dfc	0.19194788
44	0x3ca9d15d	0.020729715
45	0x3e8b8462	0.27249438
46	0xbed3fff1	-0.41406205
47	0x3dae4e00	0.08510971
48	0xbe47f953	-0.19528703
49	0xbe95c251	-0.29249814
50	0xbe8a76bc	-0.27043712
51	0xbda15357	-0.07877224
52	0xbe47976a	-0.19491354
53	0x3ed83f91	0.42235997
54	0x3e54c0b9	0.20776643
55	0x3dddd1e8	0.10831052
56	0xbebd0b14	-0.36922514
57	0xbdc8b6b0	-0.0980047
58	0xbe93ac84	-0.28842556
59	0x3eae9842	0.34100538
60	0xbe238a80	-0.15970802
61	0xbe808a01	-0.2510529
62	0xbdcc9848	-0.09989983
63	0xbefeb53e	-0.49747652
64	0xbec7c770	-0.39019346
65	0x3ea7b9ec	0.32759035
66	0x3e00e392	0.12586811
67	0xbe23a1a4	-0.1597963
68	0xbeed5fc3	-0.46362123
69	0xbf051b2b	-0.5199458
70	0xbe28bdc2	-0.16478637
71	0x3e9f27b0	0.31084967
72	0x3e4aeef8	0.19817722
73	0xbda3edb4	-0.08004323
74	0xbd85d6cd	-0.065351106
75	0x3f06fb78	0.5272746
76	0x3dd11519	0.10209102
77	0x3f38f862	0.72254
78	0x3dd88e4e	0.105740175
79	0x3e5632fd	0.20917888
80	0xbead8436	-0.3388993
81	0x3cfa7731	0.030574413
82	0x3edc5bc0	0.4303875
83	0xbe901f37	-0.28148815
84	0x3d912d49	0.070887156
85	0x3e0caed0	0.1373856
86	0x3e0d2799	0.13784637
87	0xbebbe1ad	-0.36695614
88	0x3ec62429	0.38699463
89	0x3e979ef5	0.29613462
90	0x3cc6597d	0.024212593
91	0x3dfdde1f	0.12395882
92	0x3ba74096	0.005104135
93	0x3dbe50f7	0.092927866
94	0x3e1e9392	0.15485981
95	0x3f47242e	0.7778958
96	0x3dc2e4f9	0.09516329
97	0xbe7a404f	-0.24438594
98	0xbdf41898	-0.119187534
99	0x3f1a8dcd	0.6037262
100	0x3e0fcccf	0.14042972
101	0x3f5cfbe7	0.8632187
102	0xbd1c1acf	-0.038111504
103	0x3e88d49a	0.26724702
104	0xbe3f4da7	-0.18681966
105	0xbbe2c938	-0.00692096
106	0xbe7e9b0f	-0.24863838
107	0x3e06583b	0.13119595
108	0x3ec27e32	0.37986904
109	0xbe8b8421	-0.27249244
110	0xbe1599e4	-0.14609486
111	0xbe5f3bc1	-0.21800138
112	0xbdd5cfc3	-0.10440018
113	0x3c349e73	0.011024105
114	0x3dd6afa4	0.104827195
115	0x3eb814b5	0.35953298
116	0xbe138651	-0.14406706
117	0xbecb0105	-0.39649215
118	0xbe7b851c	-0.24562496
119	0x3ef694ff	0.4816055
120	0xbdc0ca9c	-0.09413645
121	0xbdbfc25c	-0.09363243
122	0x3e0ecf5e	0.13946292
123	0x3bb219ef	0.0054352204
124	0xbe65d599	-0.22444762
125	0xbd238895	-0.039925177
126	0xbe3c027d	-0.18360324
127	0x3da49ff5	0.08038322
128	0x3e0e45ef	0.13893865
129	0x3f042735	0.51622325
130	0xbebd174c	-0.36931837
131	0xbca1b394	-0.01973895
132	0x3cd26886	0.025684606
133	0xbcee77a4	-0.029109783
134	0x3f0854e7	0.5325455
135	0xbe5a4a36	-0.21317372
136	0xbd7b1558	-0.06129965
137	0x3e14a706	0.1451684
138	0xbd3c4f64	-0.04597415
139	0x3e6072b8	0.21918762
140	0xbdebb910	-0.11509907
141	0x3d1aba94	0.03777559
142	0xbd52aa1d	-0.051431764
143	0xbca279e3	-0.01983351
144	0x3e26ece9	0.16301312
145	0x3edc8b2f	0.4307494
146	0x3e4af1fc	0.19818872
147	0xbef53db3	-0.47898635
148	0xbe4eaab0	-0.201823
149	0x3cf36f6f	0.029716222
150	0x3f01a63e	0.5064429
151	0xbe55ed5f	-0.20891331
152	0xbe13a3a8	-0.14417899
153	0x3f0bd9e7	0.5462937
154	0x3e00a590	0.12563157
155	0x3e70783e	0.23483369
156	0xbe85d592	-0.26139504
157	0xbe61cdab	-0.22051112
158	0xbd8f85f6	-0.07007973
159	0xbe17ab80	-0.14811516
160	0x3e9d5066	0.30725402
161	0xbef74c70	-0.48300505
162	0x3e5e0978	0.216833
163	0xbe8a09e8	-0.26960683
164	0x3b230603	0.002487541
165	0x3e5f28cc	0.21792907
166	0xbebc0336	-0.367212
167	0x3e9fdc31	0.3122268
168	0xbde5c50c	-0.11219224
169	0xbe9ad6ad	-0.3024191
170	0xbefa9b37	-0.48946545
171	0x3ead49b8	0.33845305
172	0xbe01b316	-0.12665972
173	0xbf18e5ec	-0.5972583
174	0x3ecae95d	0.39631167
175	0xbe30f5c4	-0.17281252
176	0x3e1863cc	0.1488182
177	0x3ec23215	0.37928835
178	0xbe2509f6	-0.16117081
179	0x3ea01275	0.31264082
180	0x3e990a52	0.29890686
181	0xbf3d0c3a	-0.7384678
182	0x3e6802c0	0.22657299
183	0xbeac2520	-0.33622074
184	0xbedaade8	-0.42710805
185	0x3e9556af	0.29167697
186	0xbd589fef	-0.0528869
187	0xbdce75e6	-0.10081081
188	0xbdc63f9f	-0.096801035
189	0xbd82fbb5	-0.063956656
190	0xbeba9f6c	-0.36449754
191	0x3ea89414	0.32925475
192	0xbea9955c	-0.33121765
193	0xbe3d0c85	-0.18461807
194	0x3e88ea5f	0.2674131
195	0x3e9b5e30	0.30345297
196	0xbe149870	-0.14511275
197	0xbe0a2087	-0.1348897
198	0xbd640b48	-0.05567482
199	0x3e2e7241	0.17035772
200	0xbea3b553	-0.31974277
201	0xbc917914	-0.01775793
202	0x3e06dede	0.13170955
203	0xbe274102	-0.16333392
204	0xbdef4212	-0.11682524
205	0xbe5060f9	-0.20349492
206	0xbdf60899	-0.120133586
207	0x3f0c30eb	0.5476214
208	0x3dec5e22	0.11541392
209	0x3edab07a	0.42712766
210	0x3e809c74	0.25119364
211	0x3bce4a3a	0.0062954696
212	0x3f11b9ed	0.56924325
213	0xbd3aed63	-0.045636546
214	0xbdca658b	-0.09882649
215	0x3ea60056	0.3242213
216	0xbea4235d	-0.3205823
217	0x3d49c768	0.049262434
218	0xbeaaa14b	-0.33326182
219	0xbe0c878d	-0.13723584
220	0xbccbe3a9	-0.02488883
221	0xbd8cf5a8	-0.06882793
222	0xbedc58ce	-0.43036503
223	0x3f14ab0f	0.58073515
224	0x3e81bb43	0.25338182
225	0xbd889873	-0.066697024
226	0xbb470631	-0.003036868
227	0x3e26b5e4	0.16280323
228	0x3f0b6cb5	0.5446275
229	0xbcc37cc6	-0.023863208
230	0x3e8356c7	0.25652143
231	0xbe48f161	-0.19623329
232	0xbe3286fd	-0.17434306
233	0xbed69e66	-0.41917723
234	0x3da16949	0.0788141
235	0x3e990672	0.2988773
236	0x3e1369d0	0.14395833
237	0x3e5a5648	0.21321976
238	0x3dd1ebd5	0.102500595
239	0x3f0917a1	0.5355168
240	0x3d5935ba	0.053029753
241	0xbe756d35	-0.2396744
242	0x3f24f6e6	0.6443924
243	0x3e728316	0.23682818
244	0xbeaccb67	-0.33748934
245	0x3f4b9d49	0.79536873
246	0xbe09f87f	-0.134737
247	0xbe6c18ce	-0.23056337
248	0xbdd4d50a	-0.103921965
249	0xbe41cc0e	-0.18925497
250	0x3f0f5b38	0.55998564
251	0xbda2e3d5	-0.07953612
252	0xbd2b192d	-0.041772056
253	0xbf03daba	-0.51505625
254	0xbebb3ac8	-0.36568284
255	0x3ee8742e	0.45401138

network_body._body_endoder.seq_layers.0.bias f4 [128]
0	0xbc71fdf0	-0.014770016
1	0x3ab40cc7	0.0013736718
2	0xbb1fdd84	-0.0024393508
3	0x3c090cfa	0.00836491
4	0x3b27de27	0.002561459
5	0x3cc9530d	0.024575735
6	0xbce82bef	-0.028341262
7	0x3d03a2af	0.03213757
8	0xbc8a544e	-0.016885903
9	0x3bbc2105	0.005741241
10	0x3b134079	0.0022468849
11	0x3c735a75	0.01485311
12	0xbc19bca9	-0.009383359
13	0x3cc2ae29	0.023764687
14	0xbc71e0bc	-0.0147630535
15	0x3b2cfc81	0.0026395621
16	0x3c65eea8	0.014033951
17	0xbc89959a	-0.016794968
18	0xbc42720d	-0.011868012
19	0xbbbcc548	-0.0057608224
20	0xb968b3dd	-0.00022192248
21	0x3c884929	0.016636448
22	0x3c83024d	0.015992308
23	0xbc97e0ae	-0.018539753
24	0x3abeae26	0.001454775
25	0xbc935600	-0.017985344
26	0x3c10c3c1	0.008835734
27	0x3c4d8ecc	0.012546252
28	0x3d466f33	0.04844589
29	0xbb9ae5dc	-0.0047271084
30	0x3d34e064	0.044159308
31	0xbb125960	-0.0022331104
32	0x3d28d76a	0.04122106
33	0x3d0b30c5	0.033982057
34	0x3c96fb52	0.018430386
35	0xbcf69cb3	-0.030104017
36	0x3c8e0a1d	0.017338807
37	0x3b85f61e	0.0040881773
38	0xbc1716e0	-0.009221762
39	0xbbd9a3d5	-0.0066418448
40	0xbc405f6a	-0.0117414985
41	0x3bbc4cb2	0.0057464475
42	0xbbba8587	-0.005692187
43	0xbc35d969	-0.011099198
44	0x3d62ba68	0.055353552
45	0x3dd08ab2	0.10182704
46	0x3cdc5ee0	0.026900709
47	0x3c4297cc	0.0118770115
48	0xbca8ec81	-0.020620586
49	0xbc23bb6e	-0.009993417
50	0x3c82a4af	0.015947668
51	0x3cde4f82	0.027137522
52	0xbc289855	-0.010290225
53	0x3d4c6df6	0.049909554
54	0xbc4632a3	-0.012097034
55	0x3c27797d	0.010221836
56	0x3d1a87ae	0.03772705
57	0xbc3eaff9	-0.011638635
58	0xbcf5132e	-0.029916372
59	0xba6ac1c1	-0.0008955263
60	0x3a0dfa92	0.0005416061
61	0x3c2a8328	0.010407247
62	0x3b029dfb	0.001993059
63	0xbc1b9194	-0.009495158
64	0x397aa9cd	0.00023905114
65	0x3cddb315	0.027062932
66	0xb9a67789	-0.00031751048
67	0x3c7d6794	0.0154665895
68	0x3da2c047	0.0794683
69	0xbb60fcd8	-0.0034330394
70	0xbae2b130	-0.0017295238
71	0x3ca69d59	0.020338701
72	0x3b648a6d	0.0034872547
73	0xbc6524ee	-0.0139858555
74	0xbc460eda	-0.012088502
75	0xbc3ff177	-0.011715285
76	0xbb18f284	-0.002333791
77	0x3d826810	0.063675046
78	0xbb917a32	-0.0044396156
79	0xbc05dcf3	-0.008170354
80	0x3d229f7e	0.039702885
81	0x3c6d3002	0.014476778
82	0x3c82557c	0.015909903
83	0x3bc080f3	0.005874747
84	0x3cb86b8f	0.022512225
85	0x3c3a779f	0.011381059
86	0x3c438566	0.01193366
87	0xbcad2e0f	-0.021140127
88	0xbc25ba01	-0.010115148
89	0x3c1f60ae	0.00972764
90	0xbb352fc4	-0.0027646879
91	0x3c89312f	0.016747085
92	0x3bef5e8b	0.0073049716
93	0x3d21e6df	0.039526816
94	0x3bd81d39	0.0065952805
95	0xbc1a583f	-0.009420454
96	0x3cfc649b	0.030809691
97	0x3d052179	0.032502625
98	0x3d00dd26	0.031460904
99	0x3c8de5c1	0.01732147
100	0xbc9b7de7	-0.018980933
101	0x3bc23794	0.0059270356
102	0xbc061035	-0.008182575
103	0x3ca77f39	0.020446407
104	0x3c85451d	0.016268307
105	0xbc943815	-0.018093148
106	0xbbaaa499	-0.00520761
107	0x3d029282	0.031878002
108	0xbc785a16	-0.015158197
109	0xbc88630d	-0.016648794
110	0x3bc735a8	0.0060793944
111	0x3bb2e755	0.005459706
112	0x3c9ab1f4	0.018883683
113	0x3d8ea470	0.06964958
114	0x3c1c98ea	0.009557942
115	0x3bac4f75	0.0052584955
116	0x3b7c7b86	0.0038525774
117	0x3d7d4ea7	0.061842587
118	0x3cf8e09f	0.030380545
119	0xbc07dc9e	-0.008292345
120	0xbbbcde33	-0.005763793
121	0x3d593916	0.053032957
122	0x3d0e747a	0.03477905
123	0x3ba5eca0	0.0050636083
124	0x3cd1e39d	0.02562123
125	0xbbaf5a4c	-0.0053513404
126	0x3c8f35d6	0.017481726
127	0x3c00b894	0.007856507

network_body._body_endoder.seq_layers.2.weight f4 [128, 128]
0	0x3d25e701	0.040503506
1	0xbda2c205	-0.079471625
2	0xbda467b4	-0.08027592
3	0xb97e0cb7	-0.00024228064
4	0xbbb5514f	-0.0055333744
5	0x3e49e3ee	0.19715855
6	0x3d7df7c8	0.06200388
7	0xbda94c37	-0.0826649
8	0x3d1631e1	0.036668662
9	0x3dba6526	0.09101324
10	0x3d21f5ad	0.039540935
11	0x3d4f4103	0.05059911
12	0x3e55ebbc	0.20890707
13	0xbba7c726	-0.005120176
14	0xbcf4d24f	-0.02988544
15	0xbcf4a927	-0.029865814
16	0x3e91af91	0.2845426
17	0xbd86bb67	-0.06578713
18	0x3cd5e914	0.026112117
19	0x39eaff4d	0.00044822172
20	0xbd705d8b	-0.05868296
21	0xbe826938	-0.254709
22	0x3cd34b24	0.025792666
23	0x3e46be57	0.19408546
24	0x3d351dfb	0.044218045
25	0xbd6dc273	-0.05804677
26	0xbc390980	-0.011293769
27	0xbe2cee87	-0.16887866
28	0x3e102d8d	0.14079876
29	0x3d68dc85	0.05685093
30	0xbe8dd5e1	-0.2770224
31	0x3d563db3	0.052304935
32	0x3c866df8	0.016409859
33	0x3db5c684	0.088757545
34	0x3ccb0099	0.024780558
35	0x3d6568a8	0.05600801
36	0x3e27634e	0.16346475
37	0xbd6d5f26	-0.05795207
38	0x3e3d8145	0.18506344
39	0xbde0b2a0	-0.1097157
40	0x3da585d9	0.0808217
41	0xbdfc0976	-0.12306492
42	0x3e0011c6	0.1250678
43	0x3d2d86a7	0.042364743
44	0xbd4537db	-0.04814897
45	0x3e1faa38	0.15592277
46	0xbd604218	-0.054750532
47	0x3dc99d3e	0.09844445
48	0xbcae5fab	-0.021285852
49	0xbd58cdc9	-0.052930627
50	0xbc990b76	-0.018682223
51	0x3cd4a7ec	0.025958978
52	0x3dcad812	0.099044934
53	0x3d498909	0.049202953
54	0x3da1d477	0.079018526
55	0x3cbcde1f	0.023055134
56	0xbd200e50	-0.03907615
57	0xba8fb7cd	-0.0010964811
58	0xbda63b13	-0.08116736
59	0x3d61f419	0.05516443
60	0x3dbd82d8	0.09253472
61	0x3b7dfc8e	0.003875527
62	0xbe06275f	-0.13100956
63	0x3d726137	0.059174743
64	0x3ba98fd9	0.0051746187
65	0xbdee1f0b	-0.11627015
66	0x3dbc21ef	0.0918616
67	0x3e02202d	0.12707587
68	0x3ca16692	0.01970223
69	0xbd18b1e1	-0.037279014
70	0x3d6d33cc	0.057910725
71	0x3dfab2fa	0.12241168
72	0xbe518e2f	-0.20464395
73	0xbdb36f0c	-0.08761415
74	0xbdb0fe48	-0.0864225
75	0xbd24fcbd	-0.040280093
76	0xbcb46cf0	-0.022024602
77	0xbe2d4c90	-0.16923738
78	0x39848a90	0.0002528024
79	0xbd3bf587	-0.04588845
80	0x3d52f563	0.05150355
81	0xbd440ca3	-0.047863614
82	0x3df27a7f	0.118397705
83	0xbd20cbfd	-0.03925704
84	0xbc323e35	-0.010879089
85	0xbe3b9106	-0.18317041
86	0x3c12708b	0.008937965
87	0xbe0658f9	-0.13119878
88	0xbcba5b3b	-0.02274858
89	0xbcd5efa2	-0.026115242
90	0xbd30d8f6	-0.04317566
91	0x3d2865e1	0.041112784
92	0xbc9e73b5	-0.019342283
93	0xbe13c280	-0.14429665
94	0xbe0ae233	-0.1356285
95	0x3c0cc8a0	0.008592755
96	0xbe1f0794	-0.15530235
97	0xbd1e99f1	-0.03872103
98	0x3d9a3612	0.07529844
99	0xbd4c4b30	-0.049876392
100	0xbd76716d	-0.060166765
101	0x3c27c0b6	0.010238817
102	0xbda2f7ee	-0.07957445
103	0xbd61b42e	-0.055103473
104	0x3b1f6cd3	0.002432634
105	0x3d6cb2da	0.057787754
106	0x3d50fb70	0.05102104
107	0xbda40db1	-0.08010424
108	0x3d886355	0.06659571
109	0xbe21b434	-0.15791398
110	0x3d21c1f1	0.039491598
111	0x3e488ba9	0.19584526
112	0xbe33d136	-0.17560276
113	0xbd693c17	-0.05694207
114	0xbe2b3a97	-0.16721569
115	0x3c953056	0.018211525
116	0x3e8046a4	0.25053895
117	0xbd7ab813	-0.061210703
118	0xbdc0f9d0	-0.09422648
119	0xbceff02c	-0.029289328
120	0xbcbedf8b	-0.023299953
121	0x3cea6fe8	0.028617814
122	0x3cd86a9b	0.026418021
123	0x3d4b84d9	0.04968724
124	0x3a84f92f	0.0010145063
125	0xbd3bcebf	-0.045851465
126	0xbc9f5b38	-0.019452676
127	0x3def3584	0.11680129
128	0xb8d7e429	-0.00010294497
129	0x3c98255a	0.018572498
130	0xbe02de66	-0.12780151
131	0xbdb991d0	-0.09061015
132	0xbb9acb43	-0.0047239377
133	0x3dc56d40	0.096399784
134	0xbd0c49cc	-0.034250066
135	0xbd4388ff	-0.04773807
136	0x3d7e5b91	0.062099043
137	0xbd46074b	-0.0483468
138	0xbdbf9446	-0.09354453
139	0x3cad9237	0.021187885
140	0x3d8c7b10	0.0685941
141	0xbda5694d	-0.08076725
142	0xbe294ca5	-0.16533144
143	0x3d9562f6	0.07294266
144	0xbb357e23	-0.0027693592
145	0xbd8e0a43	-0.06935551
146	0xbcbbb907	-0.022915376
147	0x3d1e715c	0.038682327
148	0xbdfb2964	-0.12263754
149	0xbe18559c	-0.14876407
150	0x3d18b8d7	0.037285652
151	0xbe05950a	-0.13045135
152	0xbd743220	-0.059618115
153	0xbcb0a3de	-0.021562513
154	0xbd446c28	-0.04795471
155	0xbe091277	-0.1338595
156	0x3dc58a59	0.09645528
157	0xbd5846a0	-0.05280173
158	0xbd2e2c9f	-0.042523023
159	0xbccd772b	-0.025081238
160	0x3c8b74e6	0.017023515
161	0x3db8f9b7	0.09032004
162	0x3d856cf7	0.06514924
163	0xbd94e9c7	-0.07271152
164	0xbd3ebc51	-0.04656631
165	0xbd0d3020	-0.034469724
166	0xbcde2036	-0.027114969
167	0xbe4c9334	-0.19978029
168	0xbcca2eae	-0.024680462
169	0x3cf6a2e3	0.030106967
170	0xbdfbd57c	-0.12296578
171	0x3d49a9e7	0.049234297
172	0xbe0a861e	-0.13527724
173	0x3d0cdada	0.0343884
174	0x3e0aa8db	0.13540976
175	0xbe552033	-0.20813064
176	0x3d41d5b4	0.047322944
177	0x3bdd7ed2	0.006759503
178	0xbe1e4a73	-0.15458088
179	0x3d66d3cb	0.056354325
180	0x3df3e144	0.119082004
181	0x3d94929a	0.072545245
182	0x3e7bee19	0.24602546
183	0xbc5ee3d3	-0.013604122
184	0x3d9265c9	0.0714832
185	0xbdfdba9a	-0.12389107
186	0xbdccf9e6	-0.10008602
187	0xbd4eaf86	-0.05046036
188	0xba858ef4	-0.0010189698
189	0x3db5e72e	0.08881985
190	0x3dcdfe42	0.100582615
191	0x3d80713a	0.06271596
192	0x3d2ca880	0.04215288
193	0x3bb84b99	0.0056242463
194	0xbd58d30a	-0.052935638
195	0x3e471b15	0.19443925
196	0x3d778130	0.060425937
197	0x3c8ba6cc	0.017047308
198	0x3de554f2	0.11197843
199	0xbcdd1d78	-0.02699159
200	0xbc54ec90	-0.012995854
201	0x3cb452e0	0.022012174
202	0xbe2b417a	-0.16724196
203	0xbcae8892	-0.021305356
204	0xbe33542a	-0.17512575
205	0xbda59de1	-0.08086754
206	0xbbe10f22	-0.006868259
207	0xbd5d275d	-0.053992618
208	0x3d13ca27	0.03608146
209	0x3e0c7c23	0.1371923
210	0x3d86f415	0.06589524
211	0x3dfd134b	0.123571955
212	0xbd86d629	-0.065838166
213	0x3c1cd941	0.009573282
214	0x3c76630a	0.015038261
215	0xbd18eb12	-0.037333556
216	0x3e632466	0.22181854
217	0xbd58eb25	-0.052958626
218	0x3e45203b	0.19250576
219	0xbe1d910f	-0.15387367
220	0x3d973bf3	0.07384481
221	0xbdef4e45	-0.116848506
222	0xbd6f397e	-0.05840444
223	0x3d424f93	0.04743917
224	0x3c323597	0.010877035
225	0xbd8202a6	-0.063481614
226	0xbb95e34a	-0.004574214
227	0xbe015e18	-0.1263355
228	0xbe6c51df	-0.23078106
229	0xbc829cb4	-0.015943862
230	0xbd571118	-0.052506536
231	0x3d12471c	0.035712346
232	0xbe2aff2a	-0.166989
233	0xbd540143	-0.051759016
234	0xb980a74e	-0.00024538714
235	0x3e266cae	0.16252396
236	0x3d6c7312	0.057726927
237	0xbdbbc1ae	-0.09167801
238	0xbe692d83	-0.22771268
239	0xbb23831f	-0.002494998
240	0xbdcb1ee7	-0.099180035
241	0x3e0956b8	0.13411987
242	0xbd0b7563	-0.034047496
243	0xbdbd955f	-0.09257006
244	0xbd7065ea	-0.058690943
245	0xbdbdc516	-0.09266107
246	0xbe40f822	-0.18844655
247	0xbe0295de	-0.12752482
248	0xbd87b478	-0.066262186
249	0x3df862d4	0.12128225
250	0xbe13e00f	-0.1444094
251	0xbd2e755b	-0.042592388
252	0x3d8b8590	0.068125844
253	0xbdabbaa2	-0.08385207
254	0xbcae85cb	-0.021304032
255	0xbe0b0a05	-0.13578041

network_body._body_endoder.seq_layers.2.bias f4 [128]
0	0x3c6b1fb8	0.014350824
1	0xbc374b94	-0.011187453
2	0x3b94ce01	0.004541159
3	0x3a8b8c0f	0.0010646599
4	0x3c550978	0.013002746
5	0xba95144c	-0.0011373847
6	0x3ad1607f	0.0015974193
7	0x3a96bacf	0.0011499765
8	0xbbb039b9	-0.005377975
9	0xba630252	-0.00086597085
10	0xbb59237a	-0.0033132718
11	0xbb94dd1a	-0.004542959
12	0x3bab027e	0.005218803
13	0xb9e05fd4	-0.00042796007
14	0x3be3fe24	0.006957786
15	0x3ad9d5a5	0.0016619457
16	0xbc672ec0	-0.014110267
17	0xbb96a7fb	-0.0045976616
18	0x3bc056bb	0.005869714
19	0xbb06e3cf	-0.0020582562
20	0xbadb1f8b	-0.0016717775
21	0x3b6a7a79	0.0035778566
22	0x3c0c2290	0.008553162
23	0x3c95b613	0.018275296
24	0xbc5f5a19	-0.013632321
25	0xbacde00d	-0.0015707031
26	0xbc4cd703	-0.012502435
27	0x3a32ad96	0.00068160275
28	0xbc1008fc	-0.008791205
29	0x3b7ef47d	0.003890305
30	0x3c296dbd	0.010341105
31	0xbb03d22c	-0.0020114286
32	0xbbdbb2b3	-0.006704652
33	0xbc3a428e	-0.011368407
34	0x3bb055a5	0.0053813034
35	0x3b0bc132	0.002132487
36	0x3c30e393	0.010796445
37	0xbad58e91	-0.0016293098
38	0xbc8c26c6	-0.017108332
39	0x3b0a88ed	0.0021138743
40	0x3cd9488e	0.026523855
41	0x3c104e46	0.008807724
42	0xba6b8d1a	-0.00089855643
43	0x39ae6b92	0.00033268012
44	0xbbc6c6dd	-0.006066187
45	0xbad440b3	-0.0016193598
46	0x3bbca691	0.005757161
47	0x3b04db35	0.002027226
48	0xbaa96d6f	-0.001292629
49	0xba54efc3	-0.00081228855
50	0x3a674f8f	0.0008823806
51	0x3ada2fca	0.0016646322
52	0x3c35a24a	0.011086056
53	0x3c5606ae	0.013063116
54	0x3c66a32e	0.014076991
55	0x3c00ea34	0.007868338
56	0x3c215169	0.00984607
57	0x3c12445a	0.008927429
58	0x3a1e0f68	0.00060295174
59	0xbc0a8e3c	-0.008456763
60	0xbc2a5348	-0.010395832
61	0xbb721643	-0.0036939539
62	0x3b84f0d0	0.0040570274
63	0xbbaa0ef2	-0.00518977
64	0xbc542447	-0.012948102
65	0xba89bffe	-0.0010509489
66	0xbaaa2274	-0.0012980239
67	0x3a421669	0.0007403852
68	0x3abba254	0.0014315345
69	0xbb920fae	-0.0044574356
70	0x3c45c91c	0.012071874
71	0xb99d5348	-0.00030007423
72	0x3bc690a2	0.006059722
73	0xbb77af0b	-0.0037793543
74	0xbb362194	-0.002779101
75	0x3ac4e115	0.0015020693
76	0x398c7e7d	0.00026797122
77	0x3be89ad5	0.0070985355
78	0xbbf72a53	-0.0075428872
79	0xbc37c1e5	-0.011215662
80	0x3bd09711	0.006365665
81	0x3baf4c67	0.005349684
82	0x3c538a7b	0.012911434
83	0xbc4ab1ed	-0.012371522
84	0x3b1bfc5a	0.0023801536
85	0xbc63a664	-0.013894651
86	0xbc7b7857	-0.0153485155
87	0x3b4896f9	0.0030607565
88	0x3cca5d08	0.024702564
89	0x3c49958a	0.012303719
90	0xbb43e7ce	-0.0029892805
91	0xbc245ed7	-0.010032377
92	0x3c1a575a	0.00942024
93	0x3c65865c	0.014009085
94	0xbc60514b	-0.013691257
95	0xbb5c2cc5	-0.003359602
96	0x3c4d7a25	0.012541329
97	0x3baf8f03	0.0053576245
98	0x3c05b9a4	0.008161936
99	0x3c47289c	0.012155678
100	0x3c4b245e	0.012398807
101	0xbc522248	-0.012825556
102	0x3a63b876	0.00086868496
103	0xbc98446f	-0.01858732
104	0x3accc7de	0.001562353
105	0x3b5a9236	0.0033351309
106	0x3a4c1b3e	0.0007786042
107	0x3bf26bb8	0.007398095
108	0xbc35dd21	-0.0111000845
109	0x3a623e04	0.0008630457
110	0x3ac836af	0.0015275086
111	0xbc264fe6	-0.010150885
112	0x3bf6906d	0.007524541
113	0xbb4d43c1	-0.0031320902
114	0x3bf32e54	0.007421294
115	0x3c7ae575	0.015313496
116	0x3c33cb55	0.010973771
117	0xbbda945e	-0.006670519
118	0x3c28fdf2	0.0103144515
119	0x3be3013a	0.0069276365
120	0xbac3fc6b	-0.0014952546
121	0x3ae405f5	0.0017396795
122	0x3c2388e8	0.009981371
123	0xbc40e746	-0.01177389
124	0xbbad88a3	-0.0052958294
125	0x3bbccdc0	0.005761832
126	0xbc5751b0	-0.013142034
127	0x3c530408	0.012879379

action_model._continuous_distribution.log_sigma f4 [1, 4]
0	0xbe64770e	-0.22311041
1	0xbe41d9b9	-0.18930711
2	0xbde158b5	-0.11003248
3	0xbd9aff6a	-0.075682476

action_model._continuous_distribution.mu.weight f4 [4, 128]
0	0xbd5ba32e	-0.053622417
1	0x3c8044a5	0.015657732
2	0x3c77c0b7	0.01512163
3	0x3c1146f3	0.008867013
4	0x3d54cf19	0.051955316
5	0xbd1876c6	-0.037222646
6	0xbcb56918	-0.02214484
7	0xbc9b327e	-0.018944975
8	0xbd72f9cc	-0.059320256
9	0x3d710192	0.05883939
10	0xbd804680	-0.06263447
11	0x3c801e6a	0.015639503
12	0xbc87d0a1	-0.016578974
13	0xbd335ebf	-0.04379153
14	0xbcb36421	-0.021898331
15	0xbd804ef9	-0.06265063
16	0xbc0267f2	-0.007959353
17	0xbcc58a8c	-0.024113916
18	0x3c656579	0.014001244
19	0xbd01c838	-0.031685084
20	0x3b7156c5	0.00368254
21	0x3c52581e	0.012838392
22	0x3c2f809b	0.010711814
23	0xbd9329f5	-0.07185737
24	0x3cdecd42	0.027197484
25	0xbcb53734	-0.02212105
26	0x3c285a1a	0.010275388
27	0x3c683f1d	0.014175204
28	0xbd0264ca	-0.0318344
29	0x3c330b3f	0.010927974
30	0xbce21a99	-0.027600573
31	0xbd0af18f	-0.033921774
32	0x3c087802	0.008329393
33	0xbb561889	-0.0032668433
34	0x3d9eaa2d	0.07747302
35	0xbd46b6e6	-0.04851427
36	0xbd6758b8	-0.056481093
37	0xbd553c36	-0.052059375
38	0xbc376a4e	-0.011194779
39	0x3d8d499f	0.06898808
40	0xbda6077f	-0.081068985
41	0xbb651dc7	-0.0034960376
42	0x3d498d1a	0.04920683
43	0x3c7349e9	0.0148491645
44	0x3ce6dff2	0.028182957
45	0xbc5395b1	-0.012914107
46	0x3d7ceb8a	0.061748065
47	0xbd292b05	-0.041300792
48	0x3cc9959b	0.02460747
49	0x3b9425fb	0.004521129
50	0xbd4a97ec	-0.04946129
51	0x3d40c60e	0.04706388
52	0xbd86c59b	-0.06580659
53	0x3dce17d6	0.1006314
54	0x3dba6432	0.09101142
55	0x3b1aa580	0.002359718
56	0x3da2775e	0.07932924
57	0x3da26f34	0.079313666
58	0x3dd69f7e	0.104796395
59	0x3bba439e	0.00568433
60	0xbd796830	-0.060890377
61	0x3c49c2ec	0.012314539
62	0xbd0ca792	-0.034339495
63	0xbcdf1115	-0.027229825
64	0x3c16e09a	0.009208823
65	0x3b7affcf	0.0038299446
66	0x3c42e0ff	0.011894464
67	0x3a89cbf3	0.0010513052
68	0xbd1ed899	-0.038780782
69	0x3cb13403	0.021631246
70	0xbc652390	-0.01398553
71	0x3d2d0cf9	0.0422487
72	0x3d907b09	0.07054717
73	0x3b2e0445	0.0026552838
74	0xbc9425fc	-0.018084519
75	0xbd2c837c	-0.04211758
76	0x3c9716f0	0.018443555
77	0xbd10c97a	-0.035348393
78	0xbc9961b3	-0.018723344
79	0xbbac6f29	-0.0052622748
80	0xbcc2e35e	-0.023790058
81	0xbd74cec0	-0.059767485
82	0xbe04fdff	-0.12987517
83	0xbc627b7b	-0.013823385
84	0x3d94d98e	0.07268058
85	0x3d0cfbea	0.03441993
86	0xbd0cc98a	-0.03437189
87	0xbd06b943	-0.032891523
88	0xbd9e2202	-0.0772133
89	0xbd0116ec	-0.031516
90	0x3d0b6ced	0.034039427
91	0x3bce17a2	0.0062894383
92	0xbcba64ea	-0.022753198
93	0xbd37a88c	-0.044838473
94	0xbd0db7d6	-0.034599148
95	0xbc1a2351	-0.009407834
96	0xbcb7329c	-0.022363
97	0xbb763888	-0.0037570316
98	0x3bd235ba	0.006415096
99	0xbd6920bb	-0.05691598
100	0xbd1b2602	-0.037878044
101	0x3d1b3674	0.037893727
102	0x3d3c84c2	0.046025045
103	0xbcb63b08	-0.022244945
104	0xbd0b317f	-0.03398275
105	0x3cfc1570	0.030771941
106	0x3ceb48b2	0.028721187
107	0x3d9f74c4	0.07785943
108	0x3c8d9347	0.017282141
109	0xbd390053	-0.045166325
110	0x3d9e4ab8	0.07729095
111	0x3a48527d	0.0007641686
112	0xbcb0812c	-0.021545969
113	0x3cf258b7	0.029583318
114	0xbad62308	-0.0016337344
115	0x3db97b4a	0.09056719
116	0x3d37cc35	0.04487248
117	0xbc3a2b1c	-0.011362817
118	0xbd86296c	-0.06550869
119	0x3ce5242a	0.027971346
120	0x3d2348da	0.0398644
121	0x3c7c9776	0.0154169705
122	0x3d3eed3b	0.04661296
123	0xbc8318a2	-0.016002957
124	0x3c6eb393	0.014569181
125	0xbcbb00d0	-0.022827536
126	0xbc9887b8	-0.018619403
127	0x3d5e336e	0.054248266
128	0xbdcb0a2a	-0.09914048
129	0xbac27ead	-0.0014838778
130	0xbda43ae4	-0.08019045
131	0xbdb76c8c	-0.089562505
132	0x3d2d47a5	0.042304654
133	0xbccd5162	-0.02506322
134	0x3c2b8f18	0.010471128
135	0xbd1209e1	-0.035653953
136	0xbb6d9161	-0.0036249983
137	0xbde28a32	-0.11061515
138	0x3bf0ae8c	0.0073450264
139	0x3c92c715	0.017917195
140	0xbd4290e5	-0.047501463
141	0xbd0b5ae3	-0.034022223
142	0xbbf32e1b	-0.0074212677
143	0x3a90ab27	0.0011037335
144	0xbcad4ccd	-0.021154786
145	0x3cbbd1f2	0.022927258
146	0xbd1c4665	-0.03815307
147	0x3be827e5	0.007084834
148	0x3d14575b	0.03621612
149	0xbd1ddeb4	-0.038542464
150	0x3d5028d4	0.050820187
151	0xbbe46b3d	-0.0069707916
152	0x3c7939ee	0.015211565
153	0xbd048783	-0.032355797
154	0xbc313d74	-0.010817874
155	0x3cb8daf4	0.022565342
156	0xbccd3946	-0.025051724
157	0x3d0c63b1	0.03427476
158	0x3d12210d	0.03567605
159	0xbb01311d	-0.0019713112
160	0x3d07b8b7	0.033135142
161	0xbc48e21b	-0.012260939
162	0x3be04237	0.006843831
163	0x3c56e2fc	0.013115641
164	0xbcd37f04	-0.025817402
165	0xbce69810	-0.02814868
166	0xbd41a334	-0.047274783
167	0xbba84bee	-0.0051360046
168	0xbda13894	-0.078721195
169	0x3d4ed0f9	0.05049226
170	0xbc83d525	-0.016092846
171	0x3b42525c	0.002965114
172	0xba9281c3	-0.0011177588
173	0xbd89d322	-0.067297235
174	0xbd65ab47	-0.056071546
175	0xbc9a49d0	-0.018834025
176	0x3b0797a2	0.0020689745
177	0xba207ed4	-0.00061224145
178	0x3c366481	0.01113236
179	0xbd130424	-0.03589262
180	0xbb345e73	-0.0027522116
181	0xbc43b5a7	-0.011945165
182	0x3d76e087	0.06027272
183	0x3d2c6713	0.042090487
184	0x3d1d7905	0.03844549
185	0x3be3a651	0.0069473167
186	0x3cd92036	0.026504617
187	0x3c37b106	0.011211639
188	0xbd2f0722	-0.04273141
189	0xbd2b1d1d	-0.04177581
190	0xbd481e32	-0.04885692
191	0xbc78ed6e	-0.015193326
192	0xbc14077a	-0.009034986
193	0xbd534909	-0.051583324
194	0xbc6134eb	-0.013745527
195	0x3cde4bfe	0.027135845
196	0xbcd67dd0	-0.026183039
197	0xbd67be7c	-0.056578144
198	0x3d9285ae	0.071544036
199	0xbd3b72d0	-0.04576379
200	0x3c02c776	0.0079821255
201	0x3cb29abf	0.021802304
202	0xba3458cc	-0.0006879687
203	0xbcf3acdc	-0.029745512
204	0xbd8eea9b	-0.06978341
205	0xbd9b18bb	-0.07573076
206	0xbd29c0c8	-0.041443616
207	0xbc40d8be	-0.011770425
208	0x3d2f53df	0.042804595
209	0xbdbce85e	-0.09224008
210	0x3cbed6ba	0.023295749
211	0x3a9e5907	0.0012080976
212	0xbc74fa5a	-0.014952267
213	0xbcbb86d5	-0.022891441
214	0xbd1fc5fe	-0.03900718
215	0xbd57b9ec	-0.052667543
216	0xbdc5adb5	-0.096522726
217	0xbd0b2f8b	-0.033980887
218	0xbd2aa236	-0.041658603
219	0x3c1008a4	0.008791123
220	0x3d97ddb3	0.07415333
221	0xbd97a6ed	-0.074048854
222	0xbd15d707	-0.03658202
223	0x3cd1849c	0.025575928
224	0x3d77748e	0.06041389
225	0x3d658774	0.05603738
226	0xbd72949b	-0.059223752
227	0xbd73af34	-0.05949326
228	0xbb950b9f	-0.0045485045
229	0x3c8d63e5	0.017259547
230	0x3cf58bda	0.029973913
231	0xbccf6062	-0.025314514
232	0xbd8ad941	-0.06779719
233	0x3cfed27a	0.031106222
234	0x3b9f8c93	0.0048690527
235	0x3ccb8b8a	0.02484681
236	0xbbe0a36a	-0.006855418
237	0xbc797117	-0.015224717
238	0xbc85ed51	-0.016348513
239	0xbc47874b	-0.012178252
240	0xbc438187	-0.011932737
241	0xbcf65d93	-0.030073917
242	0xbdd85c78	-0.10564512
243	0x3d5e65fa	0.05429647
244	0x3e01790f	0.12643836
245	0xbc0dfd3b	-0.008666332
246	0xbb8d60f4	-0.004314536
247	0x3d0b8fe9	0.03407279
248	0xbd501261	-0.050798777
249	0x3cfff7d5	0.031246105
250	0xbdcfa53b	-0.10138937
251	0x3b4b6ea6	0.0031041293
252	0xbc781777	-0.015142313
253	0xbd26f6bb	-0.040762644
254	0xbca8d549	-0.020609515
255	0x3d58e140	0.05294919

action_model._continuous_distribution.mu.bias f4 [4]
0	0x3b8f9b23	0.0043825074
1	0x3bd1b98f	0.006400294
2	0x3b301ef2	0.0026873914
3	0xbb1ec10c	-0.0024223952

action_model._discrete_distribution.branches.0.weight f4 [1, 128]
0	0x3c3027c1	0.010751666
1	0x3bb781fb	0.0056002117
2	0x3c0670f0	0.008205637
3	0xbb157a33	-0.0022808432
4	0x3b6fc4df	0.003658585
5	0xbab4c24e	-0.0013790817
6	0xbc0c9072	-0.00857936
7	0xbc3a9e40	-0.011390269
8	0xba12017d	-0.000556968
9	0x3ba4aff9	0.0050258604
10	0xbbb9fca4	-0.005675869
11	0x394a7169	0.0001930647
12	0x3b257310	0.0025245585
13	0x3bcdad8a	0.006276791
14	0x3c1dd1c1	0.009632529
15	0x3bc27707	0.0059345993
16	0x3b408657	0.0029376948
17	0xba4e6fda	-0.00078749435
18	0xba5f8fed	-0.00085282215
19	0xbb50e44b	-0.0031874354
20	0x3b2c8328	0.0026323292
21	0xba10e77d	-0.00055276585
22	0xbb4b3c39	-0.0031011237
23	0x3ca3f4e2	0.02001423
24	0xbc0078d4	-0.007841308
25	0xbc5d1d40	-0.013495743
26	0x3c13f1f9	0.009029859
27	0xbc37271b	-0.011178757
28	0x3be7b4f2	0.007071131
29	0x3c4e4005	0.012588506
30	0x3a060809	0.00051128917
31	0x3b6e4707	0.0036358254
32	0x3b8d12d5	0.0043052235
33	0xbc4a0f7b	-0.012332792
34	0xb9d308d3	-0.0004025163
35	0x3bb94bcb	0.005654787
36	0x3c08cec3	0.008350077
37	0xbaf54a8f	-0.0018714237
38	0x3b9b9958	0.0047485046
39	0x3b2af587	0.0026086287
40	0xbc1b065b	-0.0094619645
41	0x3c46df12	0.012138145
42	0xbc792b42	-0.015208067
43	0x3b193eb9	0.0023383333
44	0xbc7e164b	-0.015508245
45	0x3a9a08ec	0.0011751927
46	0xbb28f60b	-0.0025781419
47	0xbc12f19d	-0.008968738
48	0xba547142	-0.0008104035
49	0x3c1e611f	0.00966671
50	0xbc1a6140	-0.0094226
51	0x3b944dcd	0.004525876
52	0x37a37d4f	1.9489466e-05
53	0x3c19afc3	0.009380284
54	0xbc28ba54	-0.01029833
55	0x3c0d2a1f	0.0086159995
56	0x3a8bbf3b	0.001066185
57	0xbc6a289d	-0.0142919095
58	0x3b0fa82a	0.0021920302
59	0x3c0d71d3	0.008633095
60	0x3c15a339	0.009133154
61	0xba19b744	-0.00058637955
62	0x3bb5b40c	0.005545145
63	0x3c8a9a61	0.016919317
64	0x3b8ecd94	0.004358003
65	0xbc063bc8	-0.008192964
66	0x3be33562	0.006933854
67	0x3c2b873c	0.010469254
68	0xbb3b0deb	-0.0028542231
69	0xbc0dd25d	-0.008656112
70	0xbc24d5fb	-0.010060783
71	0x3bf9eb65	0.007626938
72	0xbc830265	-0.015992353
73	0xbbe083b8	-0.0068516396
74	0x3b7105df	0.003677718
75	0xbb4d1b9d	-0.0031296976
76	0x3bddc77a	0.006768164
77	0xbbc21a1a	-0.0059235217
78	0x3b7845cd	0.0037883401
79	0xb9caf266	-0.00038709043
80	0x3bafcdf4	0.0053651277
81	0xbbe925f8	-0.007115122
82	0xbc0368b8	-0.008020572
83	0xb9c8e3e3	-0.00038316761
84	0x3bb48fce	0.005510307
85	0x3a66e86b	0.00088084367
86	0xbb2d0223	-0.0026398979
87	0x3b9077ae	0.004408798
88	0xbc6f48ca	-0.014604757
89	0xbb9c4e54	-0.0047700796
90	0x3cab5a7f	0.020917175
91	0xbba37d5e	-0.00498931
92	0xbc1fa3e2	-0.009743663
93	0x3bb9187d	0.005648671
94	0x3c0412d8	0.008061133
95	0xbcc3635f	-0.023851095
96	0xbba7bb7e	-0.0051187864
97	0xbb80d935	-0.003932143
98	0x3c1b9116	0.00949504
99	0x3b87b8a6	0.004141885
100	0x3bb11227	0.0054037753
101	0x3b74c2d7	0.003734758
102	0x3bc6d39d	0.0060677067
103	0xba716d15	-0.0009209675
104	0x3c9261f9	0.017868983
105	0xba08ca11	-0.00052180985
106	0xbc225724	-0.009908471
107	0xbbb808de	-0.0056162914
108	0xb9f8f078	-0.0004748141
109	0xbb24ee87	-0.0025166587
110	0x3ac5a858	0.0015080078
111	0xbc6f637a	-0.014611119
112	0x3b48b635	0.0030626182
113	0xbbf62085	-0.007511201
114	0x3afe4f2f	0.0019402261
115	0x3b808e57	0.003923218
116	0xba934e42	-0.0011238533
117	0xbc0f75ef	-0.008756145
118	0xb87d236d	-6.0352893e-05
119	0xbb9c4fe1	-0.0047702645
120	0x3b280b31	0.0025641436
121	0xbbf3335d	-0.0074218945
122	0x3bbabed0	0.005699016
123	0xbb900865	-0.004395532
124	0x3b451cb1	0.0030076916
125	0x3a56e41a	0.0008197442
126	0x3a9f4d4d	0.0012153775
127	0xbbe45c7d	-0.0069690333
